src/image_upscaler_cnn/model_file/upscaler_model_2x.pth (torch, 177805 bytes, 6 tensors)

model.0.weight f4 [64, 3, 5, 5]
00000000: 1a66 333d d950 193d 6696 823d 5209 65bd
00000010: 22f3 25bd 70ca 02bc 4d32 973d a3bc 903d
00000020: 6725 b93a 23b7 d33d 0200 bb3d bccd 853d
00000030: b3fa 4a3d 4d19 e4bd 1971 cabd 9e23 973c
00000040: de58 b1bd 3a6d c43d e241 793d c17c ed3c
00000050: 82cf 2e3c c21c 923d 3057 863d 3925 0a3d
00000060: 15e9 803d b3b1 e4bd 468b f5bd 8db7 0b3d
00000070: 989b afbd 652a b7bd cd3b a53d cfbb a1b9
00000080: 056f adbd 1fa5 433c 1e6e 79bd b857 a63d
00000090: 34c7 d7ba 11ec 953c 26da f6bd c0b6 643d
000000a0: 2d2b 11bd 9262 8c3d b4ef b3bd 9360 293d
000000b0: dba7 9ebc 8fa5 4139 db66 9ebd fe02 bcbd
000000c0: 722b fabc d327 c13c 0738 3d3c 70df 9d3d
000000d0: f833 93ba 0de1 d5bd c562 4bbd a63d b5bc
000000e0: bb85 173d 509c 4cbd 3833 dc3d 2507 233d
000000f0: 47c4 a83d 0ee3 df3d d3fa 8e3d eeb9 6e3d
00000100: ec32 ca3d 2db8 eabd 12bd c5bb 5cde ed3b
00000110: 3a25 c4bd c8a5 ddbd 4a22 7fba d5b3 813c
00000120: 01b6 bcbc 3959 d33c 5288 2e3d 1958 953d
00000130: 0463 a7bd ef74 29bd 255f 1f3d ca0a b0bd
00000140: c2d0 823c 783a 523d 4017 ae3d 7587 813d
00000150: 8f1f 083d 8723 ce3d 356d b13d 0d43 f23d
00000160: 81bb f23c 6585 2dbc 2a46 523d 2c33 dc3d
00000170: 2ba7 12bc ed8f 98bd 8413 16bd 8c8a 903c
00000180: b84e e8bc b594 8abd 7407 c73c 0ed3 b9bc
00000190: b524 b7bd 2575 8abd c301 ccbd c711 9bbc
000001a0: e3ea 69bd c954 df3c 1b28 d83d befa 803d
000001b0: 8aee fdbc ea10 bbbc aedf 3a3c a334 77bd
000001c0: 0e32 963d 8b54 0b3d 5d6e 69bd 1344 ae3d
000001d0: e600 ef3d d197 14bd 7c0f c43d 248b c5bd
000001e0: 0eaa b53b a009 c43d 9eca 833d f4a7 d6bb
000001f0: 885f 343d 1ddf fb3b 5131 7e3c 3975 e13d
00000200: 9eb4 153d 7501 493d 5683 3bbd df84 8cbd
00000210: 915e a03d 6b74 153c e574 33bd f2a9 63bd
00000220: a190 df3d d2cd 47bd e33a ccbd 03e4 8ebd
00000230: ed9d 6a3d b0ee df3d d992 8cbc bce7 d6bd
00000240: dcef 50bc 67c0 08bd 023a e5bc d970 fa3c
00000250: 98be 4a3b 92dc 9a3d da6b 2cbd dd9a 753d
00000260: d276 a8bd 597d 23bb d6ea e4bd d9db 5bbc
00000270: 6be8 883c e028 c03d 42e2 dfbd 5348 debc
00000280: 8f69 e5bd e59b 90bd 6447 293d f2d8 c63c
00000290: 73ff dc3c bd49 ccbd ce76 8f3d caef 753d
000002a0: 2755 c4bd 45f9 03be 6b02 933d d6ee c8bd
000002b0: 8a32 6f3d 7141 aabd 4249 9d3d 3d90 bc3d
000002c0: 5476 1f3d 5236 a73d ec7d 9a3c 5c84 7e3d
000002d0: 6d74 09bd c4f3 d73d 8bcf 843b 2aa1 97bd
000002e0: 0d07 d2bc 2534 59bd 6d30 e0bc cf73 24bd
000002f0: b063 03bd 5669 923d 44e6 9f3d e10f cd3d
00000300: a7ad af3d 5e82 90bd 875f a53d 5687 563d
00000310: 5742 fdbb 97ba 9a3d a341 02be e380 bb3d
00000320: 3330 a93d e665 743d 7bb7 cf3d 95d1 083e
00000330: 90ac 563d 02cc 4fbd 885c 973d c0c2 92bd
00000340: 2181 7cbd 26a3 273d 70d8 fbbd 6b62 1abe
00000350: 6e15 24be c0d6 ccbd f1ce 76bd 14ea 6f3c
00000360: 8c8f 2dbd 01c9 9ebc a118 143c 5432 c83d
00000370: 16b5 aabc c189 893d 3b84 b2bc b689 bfbd
00000380: ad21 cebd d109 96bd 88ab b8bd e68f 043a
00000390: fac2 3bbd 8a01 3e3d d9d4 583d 32e2 cb3d
000003a0: 2bee aabd 534a 463c 60d8 04bd 2e53 853d
000003b0: e415 593d af1e 813b 70e4 543d 2ef9 d13d
000003c0: 894d a73c fcea 48bc 432c 913c a7a7 ad3c
000003d0: ff47 a93d c565 a33c eeab 47bd 0ae0 d03d
000003e0: 208b 263d 82b3 bfbd 5caa 823d 0900 963c
000003f0: 5fb4 8cbd a93f 1bbd 9517 ab3c b43c 653d
0.043798544 0.037430618 0.063763425 -0.05591709 -0.040515073 -0.007982835 0.07382641 0.070672296
0.0014125527 0.10337665 0.09130861 0.06533381 0.04955549 -0.11137638 -0.09884853 0.0184496
-0.08659528 0.09591146 0.060853846 0.028990151 0.010669591 0.07134391 0.065595984 0.033726905
0.06294457 -0.11166706 -0.11989455 0.034110595 -0.08574599 -0.08943633 0.08068047 -0.0003084824
-0.08468441 0.011941223 -0.06089603 0.081222 -0.0016462565 0.018301042 -0.12053327 0.055838346
-0.035441566 0.06854738 -0.08785954 0.041351866 -0.01936715 0.0001846759 -0.07734462 -0.09180258
-0.030538294 0.02357856 0.0115490025 0.07708633 -0.0011230698 -0.10443316 -0.04965474 -0.022124123
0.03699277 -0.04995376 0.10751957 0.039801735 0.08240562 0.10931979 0.06981435 0.058282785
0.09872994 -0.1146091 -0.006034502 0.0072591733 -0.09577413 -0.10822636 -0.00097325875 0.01583282
-0.023036005 0.02579938 0.042610474 0.07292194 -0.081731826 -0.041371282 0.038909096 -0.08595808
0.015968684 0.05132529 0.08500528 0.063246645 0.03323322 0.1006537 0.08663408 0.11829195
0.029630424 -0.010590886 0.051336445 0.10751948 -0.008950989 -0.07449327 -0.036639705 0.01764419
-0.028357849 -0.06766645 0.024295546 -0.022683647 -0.08942548 -0.06760625 -0.099612735 -0.018929375
-0.05710877 0.027262108 0.105545245 0.06297825 -0.030997533 -0.022835214 0.011405868 -0.060352933
0.07333766 0.034016173 -0.056990016 0.08509078 0.11670093 -0.036277596 0.09573266 -0.096456796
0.0055439537 0.09572148 0.064351305 -0.0065507833 0.04403642 0.0076865093 0.015514688 0.110086866
0.036549203 0.049073655 -0.04577955 -0.06861281 0.07830537 0.0091219945 -0.04381265 -0.055581994
0.10916258 -0.04878027 -0.09972169 -0.069770835 0.057279516 0.10934198 -0.017159866 -0.104934186
-0.012752499 -0.033386614 -0.027981762 0.030571388 0.0030936357 0.07561602 -0.042095043 0.059962142
-0.08225788 -0.002494654 -0.11177604 -0.013419115 0.016712388 0.09382796 -0.10931827 -0.027134096
-0.11201774 -0.070609845 0.04132785 0.02427337 0.026977276 -0.09975002 0.07005082 0.060043134
-0.09586554 -0.12888058 0.071781956 -0.09811179 0.058397807 -0.08313263 0.076799884 0.09207199
0.038931206 0.08164658 0.018858872 0.062137946 -0.033558298 0.105445415 0.0040530614 -0.074037865
-0.025638128 -0.053028245 -0.027366841 -0.040149506 -0.03207749 0.071489975 0.078075916 0.10012794
0.085780434 -0.070561156 0.08074861 0.05237516 -0.0077288556 0.075551204 -0.12720351 0.091554426
0.082611464 0.05966749 0.10142418 0.13361199 0.052410662 -0.050731666 0.07390696 -0.07166052
-0.061646584 0.040927075 -0.122971416 -0.15076606 -0.160238 -0.10001898 -0.06025595 0.014643211
-0.042373225 -0.019382956 0.009039075 0.09775224 -0.020838302 0.067157276 -0.021791568 -0.09352438
-0.10065017 -0.07326091 -0.09017092 0.0005056843 -0.04584024 0.046388187 0.052937362 0.09955253
-0.08346208 0.012102681 -0.032432914 0.06510006 0.052999392 0.0039404253 0.051975667 0.102526054
0.020422714 -0.012263056 0.017721301 0.021198107 0.08265685 0.019945988 -0.04874795 0.10198982
0.040660024 -0.0936041 0.0638015 0.018310564 -0.068703406 -0.037902508 0.020885268 0.055966094

model.0.bias f4 [64]
00000000: 43a7 563c 77f6 c53d 950a 46bd 2774 c7bd
00000010: 4e87 a93c 500e fa3c a90f 8d3d 88e0 db3d
00000020: 9700 ecbc 3b63 893d f9a8 a9bd 4aa9 683c
00000030: 3d50 7f3d fe9e be3d 8e6d db3d e519 ac3d
00000040: 8473 eabc 9e2b d33d 1dee c93d 4e72 843c
00000050: a488 c43d 05bb 73bd 7050 9a3d a004 cdbd
00000060: 5bf8 d7bd 477f b4bc 1534 243d 1e5f b4bc
00000070: 2a72 e2bc 0139 bc3d 6906 09bd 9692 3abd
00000080: 9fa4 c43d ca03 06bc 0afb 0abc 413b cc3c
00000090: 5177 a0ba d418 fdbb 90ed 183d f1c6 68b9
000000a0: 8a2c 31bd e8ba e13c 9713 823d 2cca 8c3c
000000b0: b4ec 6ebd 360e 7bbb 7ebc ae3c b877 b63d
000000c0: 8394 2d3d 9201 8e3d f81b 5d3d 16c9 a53c
000000d0: 4fc6 f0bc 23da ab3d 51b9 1abd 2cdf 4a3d
000000e0: b581 d43d f38f 62bc 5455 153c 357f abbd
000000f0: dd50 4dbd b522 5c3d 3eb8 c33a 5066 cf3d
0.013101402 0.0966615 -0.048349936 -0.09738951 0.020694401 0.030524403 0.068877526 0.10736185
-0.028808875 0.0670838 -0.08284182 0.014200518 0.06233238 0.09307669 0.10714255 0.084033765
-0.028619535 0.10311054 0.0985987 0.016167786 0.09596375 -0.059504528 0.075348735 -0.10010648
-0.10545417 -0.022033347 0.04008873 -0.022018012 -0.027642328 0.0919056 -0.03345338 -0.04554995
0.096017115 -0.008179614 -0.008482704 0.024930598 -0.001224259 -0.007723907 0.037335932 -0.00022199356
-0.043255366 0.027554944 0.06351393 0.017186247 -0.058331206 -0.003830803 0.021330114 0.08909553
0.04237796 0.06933893 0.05398175 0.020237487 -0.029391436 0.08391216 -0.037774388 0.04952924
0.10376302 -0.0138282655 0.009114582 -0.08373872 -0.050125945 0.053744037 0.0014932228 0.101269364

model.2.weight f4 [64, 64, 3, 3]
00000000: 8018 0c3d 0b8b 9cbc 069f 7b3c d7e0 a5ba
00000010: a50b 9e3c 1b2e 893c be98 1f3d 776e 173d
00000020: 758c 1cbc 1fdd 053d c776 273b e9ad b73c
00000030: 7c47 8ebc 074e 0cbd 02c1 633c 0af9 043d
00000040: 7f79 453c 9fc5 2cbc 32d5 883c 07fa 213d
00000050: baee a63c cca3 a6bc dd39 eabc 916f 803c
00000060: afe8 a83b 336a ee3c 668d 893b be48 a5ba
00000070: 60da 2b3d 10bc 8e3c 0697 3d3d da84 0f3d
00000080: 9e6d 8d3c 5435 13bc b12b 5bbc 599b eabc
00000090: 9330 54bc e7f1 edbb f9f3 3c3c 4ff3 2d3d
000000a0: da8c 013c 6389 433d fa6d 3c3c 0a6d f6bc
000000b0: 9081 e83c 9f4d 143d b968 d03c 2abc 05bc
000000c0: cf6b c63c b426 2f3d e555 5b3c 9e14 153c
000000d0: 7440 e03c 4892 df3c f321 113d cbd0 9a3d
000000e0: a1b1 dd3c a974 2e3d 75ab a43d 5819 0c3d
000000f0: a094 f13c c1e8 7f3d 5d5d a43d 3737 653d
00000100: 7d78 b0bc ad89 2cbd b20f ffbc 0012 d7bb
00000110: 0ae3 b5bd 4246 39bd 15e8 b9bc 8ae0 c0bc
00000120: 1bdd 60bd 28c1 813d c31c bc3c af94 633c
00000130: 3fde 0abc 00da 103d a093 eebb a771 98b9
00000140: 30c8 0a3d 559c 673c ef47 86bc 8114 2a3c
00000150: 553e 333d b988 92bc 1d13 303d 5c30 5ebc
00000160: 82cb 0dbd 5c5e 103d f347 c03c 8bfa 04bd
00000170: 0422 b9bc 93d7 ecbc ec5b 8f3c a71f 20b8
00000180: 228a ac3b 9985 e33c 5b13 f1bc 0cc7 5b3d
00000190: a6ef 94bc 914e d93c 50f9 96bc d17d cdbc
000001a0: 311d 25bc b172 803c 603c fe3c 57b6 1e3d
000001b0: ad16 0fbd 7567 7fbd 8c83 dfbb 1af5 383c
000001c0: 91fc e13c 79c4 b23c 803b 98bc a266 553b
000001d0: 2679 7fbc 506f 52bc faa9 1c3c ebc6 83bc
000001e0: dbd3 aa3c c557 afbc 45bf 3abc ce05 18bd
000001f0: 5292 2cbd f85e 28bc 7722 373c 8d37 d6ba
00000200: af60 16bd ee58 ec3c 2bc7 82bc 28ba 69bc
00000210: f110 0dbd 36a5 cabc 61af 53bc 080d 803b
00000220: 0ade 463d 7ace b83c 3c91 b23c b2f7 0abd
00000230: 0d51 683d fe77 013c 7390 d63b 5f5b 473d
00000240: 6773 953c 320a 21bc 0a64 4a3c 36a3 13bc
00000250: 817d 19bd b506 feb9 206b 7b3c bdbb 02bd
00000260: 60f5 19bd a672 39bd 6a0e 0e3d 70f1 2bbc
00000270: 3aa0 01bd 0284 df3c 1b53 8a3c 462d 11bd
00000280: e73c 59bd 3f29 9e3c cc8a 163c 5813 033d
00000290: f802 50bc dc2f 18bd ecfc 253d 3aa5 b33c
000002a0: 5d9f dfbc 0967 7a3c 8c4f a63b 46e2 e83c
000002b0: 8e18 44bc a352 993b 0694 0c3d c0d9 36bc
000002c0: a70b 7abb cb01 fa3c 9a1b fa3c 3dff a1bc
000002d0: 561e 17bd 0b1a 0f3d 894b ac3c ff13 7b3c
000002e0: c384 cdbb 2066 7ebc c356 0dbc ffb2 06bc
000002f0: 0dc7 6b3c 258f 1c3d 5c7d 7a3c b1ba 133d
00000300: 16ed 24bc a999 adbb c024 aabc 02ff 093a
00000310: d2ea 86bc 0fc5 03bc 7574 02bc cd30 debc
00000320: d832 af3c 0041 24bd 6df1 69bd e101 dbbd
00000330: f264 703d 6f8f 3ebe 02fc 18be c916 21bb
00000340: 75c8 1e3d 008f ccbc e54a 04bd b8ee 96bc
00000350: 98a8 99bc 3633 a83c 4d51 083d ef8c 56b8
00000360: b9e0 f43c 47af 313c 849e 603d dbc6 853c
00000370: 34e8 153c b958 37bc 7495 10bc 8f2d 203c
00000380: cc9a afbc 737f 9a3c 4ada d73c 1ed0 a1bc
00000390: eab4 0abd e2a8 623c 4f4e 0d3c aac9 f43a
000003a0: 5abf 4dbd 857e af3c a929 a03c 9634 683c
000003b0: 79a0 793c 64eb d53c 395a 38bc 3f02 29bd
000003c0: 1d34 4f3d 823c 1bb8 f3be a2bd af7f 613d
000003d0: e5c5 ab3c b9a8 2ebb d7a4 033d 7cd2 9c3a
000003e0: 18bf 933c 98f5 38bb 8299 953b 9ca5 3f3c
000003f0: f958 703d f9fe a5bc 8672 163d 9b7f b03c
0.034203053 -0.01910927 0.015357738 -0.0012655508 0.019292662 0.016745618 0.038964026 0.03697058
-0.009554972 0.03268158 0.0025552975 0.022421794 -0.01736807 -0.0342541 0.013900997 0.032464065
0.012052893 -0.010545163 0.016703222 0.039545085 0.020377506 -0.020341776 -0.028592044 0.015678199
0.005154691 0.029103374 0.004197764 -0.001261018 0.041956306 0.01742366 0.046286605 0.035038806
0.017264184 -0.008984882 -0.013377116 -0.028638529 -0.012951034 -0.007261503 0.011532777 0.042468365
0.007907117 0.047738444 0.01150083 -0.03008129 0.028382093 0.036206838 0.02544056 -0.008162538
0.024221329 0.04276152 0.013387178 0.009099154 0.027374484 0.027291432 0.035432767 0.07559355
0.02706224 0.042591725 0.08040515 0.034203857 0.029489815 0.06247783 0.0802562 0.05596086
-0.021541828 -0.042123485 -0.031135414 -0.006563425 -0.08881195 -0.04523302 -0.022693673 -0.023544569
-0.054898363 0.0633567 0.022962933 0.013890429 -0.008475839 0.03536415 -0.007280782 -0.00029076377
0.03388232 0.014136394 -0.016391722 0.010380865 0.043760616 -0.01788746 0.042986978 -0.013561334
-0.03461791 0.035246238 0.023471808 -0.0324655 -0.022599228 -0.028911388 0.017499886 -3.817645e-05
0.00526549 0.027773665 -0.029428175 0.053656623 -0.01818068 0.026526721 -0.018429428 -0.025084408
-0.010077761 0.01567969 0.031034648 0.03874811 -0.034933735 -0.062354524 -0.0068211015 0.0112889055
0.027586253 0.021822201 -0.01858306 0.0032562395 -0.015592849 -0.012843922 0.00956201 -0.016086062
0.020852974 -0.021404156 -0.011398141 -0.03711491 -0.04213173 -0.010276549 0.011177651 -0.001634346
-0.0367133 0.028850999 -0.015964111 -0.0142655745 -0.034439985 -0.024736982 -0.012920232 0.0039078034
0.048551597 0.022559393 0.021797769 -0.033927627 0.05671792 0.0079021435 0.0065479814 0.048671123
0.018243505 -0.009829091 0.012352953 -0.0090110805 -0.037473205 -0.00048451652 0.015345365 -0.031917322
-0.037587523 -0.045275353 0.034681715 -0.010494575 -0.031646945 0.027284626 0.01688533 -0.035443567
-0.053036597 0.019306777 0.009188365 0.03200087 -0.01269602 -0.037155017 0.04052441 0.021929372
-0.02729767 0.015283355 0.0050754007 0.028428208 -0.011968745 0.0046790405 0.034320854 -0.011160314
-0.0038153918 0.030518433 0.03053074 -0.019775027 -0.036894165 0.034936946 0.021032112 0.015324592
-0.00627193 -0.015527278 -0.008626643 -0.008221387 0.014390719 0.03822245 0.015288677 0.036066715
-0.010066291 -0.0052978587 -0.020769477 0.00052641344 -0.016469393 -0.008042588 -0.007962336 -0.02712288
0.021386549 -0.04010105 -0.057115007 -0.10693718 0.05869002 -0.18609403 -0.14939883 -0.0024580231
0.03876539 -0.024970531 -0.032297987 -0.018424377 -0.01875715 0.020532232 0.03328066 -5.115283e-05
0.029892312 0.010845012 0.054838672 0.016330173 0.0091496 -0.011190587 -0.008824695 0.009776487
-0.021436118 0.0188596 0.026349206 -0.019752558 -0.03386394 0.01383421 0.008624627 0.0018675823
-0.050231315 0.021422634 0.019551115 0.014172694 0.015236014 0.02611322 -0.0112519795 -0.041261908
0.05058681 -3.7011232e-05 -0.07946577 0.05505341 0.020968387 -0.002665086 0.032139625 0.0011964585
0.018035457 -0.0028222557 0.0045654187 0.011697199 0.0586786 -0.020263182 0.03673031 0.021545222

model.2.bias f4 [64]
00000000: baa0 10bd 174b 19bd 4d22 3d3a bc91 a23c
00000010: fd6f 7ebd 154b dbbc 394b e83b b163 153d
00000020: 0442 603c ab6c ac3c be58 8c3a 83d8 13bd
00000030: 75ff 1b3c 6b43 2abb 7ec9 e23c a97b fd3c
00000040: 5b2e 06bc 2e58 7639 0a97 7ebc 6102 a5bc
00000050: 7d32 38bb 2eb6 09ba 2391 cb3c d833 1c3d
00000060: cce4 16bb 7dfe e8bb 25a9 99bc 2d9b 8dbc
00000070: 42a2 a4bc e430 283d 2638 88bb ac2f 8fba
00000080: d2ef 3cbd 1ed6 66bc 19d5 20bc 2040 febb
00000090: 38cf 75b8 9012 073d e81d 5eba 0de6 fb3c
000000a0: 406c 323c 91db 84bb 5ac4 923c a66f 743c
000000b0: 26f0 2bba 3599 f9bc c55c 003d ce15 813c
000000c0: 4b32 cb3c 8c34 1cbc 5ba4 37bd de84 13bd
000000d0: a53b a43c 75f4 35bd 3739 893c 925f f53c
000000e0: 5a07 e2ba f3e1 03bd 8b2a 1c3c 690e 103c
000000f0: 5f12 d5bb ddcd 613c cdbe b93c 1678 fb3c
-0.03530953 -0.037425127 0.0007214889 0.019844882 -0.06211852 -0.0267692 0.0070890454 0.036472026
0.013687614 0.02104791 0.00107076 -0.036095154 0.009521355 -0.0025980126 0.02768397 0.030942755
-0.008189763 0.00023493238 -0.01553894 -0.020142736 -0.0028106265 -0.0005253282 0.02484948 0.03813538
-0.0023024557 -0.0071104155 -0.018757412 -0.017285908 -0.020096902 0.04106225 -0.004157084 -0.0010924242
-0.046127148 -0.014089135 -0.009816431 -0.007759109 -5.860554e-05 0.032976687 -0.00084730843 0.030749345
0.010890067 -0.0040544947 0.017915893 0.014919197 -0.0006558917 -0.030468563 0.031338472 0.015757468
0.024804255 -0.0095340125 -0.044834476 -0.036015384 0.020047972 -0.044422586 0.016750915 0.029952798
-0.0017244623 -0.032197904 0.009531627 0.008792498 -0.006502434 0.013781992 0.022673989 0.03069691

model.5.weight f4 [3, 64, 3, 3]
00000000: 9b31 dc3c 0fce a9bc 1e16 f03c b544 a2bc
00000010: 3a37 db3b 8d4e b33c 2cd1 9c3c 158e a13c
00000020: 3699 4cbb 7584 0dbd 5258 e03c a8cf 283b
00000030: 5933 9dba c532 d4bc ab69 42bc 81b2 2e3b
00000040: bc72 8f3b fff2 933c 5847 cbbb d50d 2c3d
00000050: 9ce0 86ba ca99 33bc 857a 993c cf1c 203d
00000060: 2210 92bb 5eef 0abd 3a2a 0abd e555 b0bc
00000070: 7343 1c3d b3f2 efbc f2fc 893c 44fc 0a3d
00000080: 3a5c e73b 4967 dab9 c2ec da3a abef 50bb
00000090: 235d 243d 1e0c 53bc c078 883c 8cce 933c
000000a0: f97d 143d 95d7 2ebc fe80 e6ba 4ee4 04bd
000000b0: 1e01 44bc 693a fabc d64f 393c 78c2 d7bc
000000c0: ebfa d83b a48f a33c 1f74 363c 6741 463b
000000d0: 8900 843c b602 3f3d 1d37 d83b f515 24bd
000000e0: 5bd7 9d3c 670f 97bc 6ece b0bb 7f19 0bbd
000000f0: ac5d 113d b10c 79bc 1f04 c83c a6fc 8f3c
00000100: 272c c03c 0b89 d23c e2c8 96bc d78f b63c
00000110: 0c84 003d d270 1fbd 16d7 92bc 6044 26bc
00000120: e4ed 23bd b3d5 2b3b 3486 04bd eb8c 06bd
00000130: aa4e 05bd 60e2 d639 bdd8 20bc c719 713c
00000140: d78a 1e3c 5d4c f9bc 956f 093d 106f 143b
00000150: e772 813c 8c44 1dbc 5417 c43c ad7b 0b3c
00000160: a85e 59bc 7029 0abd f395 893b 8596 273b
00000170: 7be4 b9bb 820a 963d 46fa 1b3e b185 173d
00000180: cdf8 00bd 8f0f 24bb b9ca 18be 4630 ffbc
00000190: 9c02 eb3c 3359 ebbc 4500 e538 e1b1 d7bb
000001a0: a137 9bbc becf 083d 3eba e53c 45ba f1bc
000001b0: ff44 873c 2459 8c3d c90f 363d 59a7 65bc
000001c0: 3224 d13b 7ec0 ee3c 6052 313d 4f6a 6b3c
000001d0: f6c7 3e3d 84b2 bb3d 04c4 963d acee 6e3d
000001e0: 4aff 983a 2176 28bd 0b8d 36bd 37cb 573d
000001f0: 340d b83d 9c84 e23c 6209 553c 0405 173c
00000200: 5ee3 ebbc 6d13 1e3c 37a6 29bd 08e5 cfbc
00000210: 8824 c9bc b43e aabc a7a2 00bc a44e 273d
00000220: 70ef e5bc 7f5c a63c b940 183c 4c0a a2bc
00000230: 62ee cabc bdfd f13c efa2 4f3c c405 e7bc
00000240: 9d2b 8b3b 6e2d 0f3d 9797 003d c064 ad3c
00000250: e6d6 d2bc b515 f1bc 12ae 92bc 29d7 1ebd
00000260: 4848 24bd 20dd c33c 7e43 07bd b432 ebbc
00000270: 7f86 3b3c 18e2 94bc b262 23bc a985 b4bb
00000280: b80a 3b3d abdb 173d ab17 eabc f2e2 cbbc
00000290: 64e7 92bb 564d b23c 31fa 0fbd c615 83bb
000002a0: 85af fdbc 1bbd bcbc 3647 47bc 3597 6ebc
000002b0: 9b8d a43c e0f5 d9bc b2a8 39bd c51e 483d
000002c0: 7892 193d 3260 5ebc d4b3 293d 1bac e73c
000002d0: 832c dc3c af30 99ba e121 0bbb e104 15ba
000002e0: d987 113d f59a 533d 17b0 3bbd 3fa4 003d
000002f0: b674 133d 4702 8cbc 52d4 223d ae53 90bc
00000300: 3dc8 173d 0a60 123d db3b 4e3b e19f 3b3d
00000310: 35fc 7abc 5e08 01bd 2c2a 0c3d 1873 c6bc
00000320: ffae eb3a 5f62 203d ddf8 febc 98d3 e0bc
00000330: 9fd7 f13a d964 063c afe1 06bb 5877 013c
00000340: 4a76 5f3b 5729 8f3c df12 063d 4363 3e3d
00000350: 8780 1b3d 5add 123d 33de a13c ebcb 093d
00000360: af4c 60bd 9162 ecbc f263 d33b 62f4 e03c
00000370: 6ce9 7d3b ef03 92bc 6f27 8b3c 87b0 363c
00000380: e96b 41bc 1b0f a2bd f9eb 86bc eaa7 e6bd
00000390: 382a c43d b331 1d3e f61e 0ebd ddbb e73c
000003a0: 1645 183d 761a 4bbd 337a da3c 145b 2dbc
000003b0: 7bd7 813c 80f8 82bc 3902 113d fd90 bcbc
000003c0: c88e 49bc 7dd8 10bd d41e 243d 1e78 24bc
000003d0: 2f95 b03b e7ed 0c3d 98a2 6ebc 5050 06bc
000003e0: a56c ae3b 8179 fc3c 468f 333c 86a1 dfbb
000003f0: 49c2 11bd 8618 9c3b be0f c13b 7c78 213c
0.026879122 -0.02072814 0.029307421 -0.019808153 0.006689933 0.021888042 0.01914271 0.01972107
-0.003121925 -0.03455015 0.027385864 0.0025758538 -0.0011993452 -0.025903115 -0.0118660135 0.002665669
0.004377691 0.018060206 -0.006203573 0.04200538 -0.0010290327 -0.010961959 0.01873518 0.039089974
-0.0044574896 -0.033919685 -0.033731677 -0.021525333 0.038150262 -0.029290533 0.016844247 0.033931985
0.007060555 -0.00041657154 0.0016702639 -0.0031881134 0.040127885 -0.012881307 0.01665914 0.018042825
0.03625295 -0.010671516 -0.001758605 -0.03244429 -0.011963157 -0.03054543 0.011310538 -0.026337847
0.0066217086 0.019965954 0.011136084 0.0030251385 0.016113536 0.046633445 0.006598367 -0.040060002
0.019267729 -0.018439962 -0.005395702 -0.03395986 0.035489723 -0.01520078 0.024416028 0.017576527
0.023458553 0.025700113 -0.018406335 0.022285385 0.03137593 -0.038925953 -0.017924827 -0.010148138
-0.040021792 0.0026219904 -0.03235455 -0.032849234 -0.032545723 0.00040985923 -0.009817299 0.014715618
0.009676657 -0.03043192 0.03355368 0.0022649206 0.01580186 -0.009598862 0.023936905 0.008513373
-0.013267197 -0.033730924 0.0041987835 0.0025571894 -0.005672989 0.07326223 0.1523219 0.036992732
-0.031487275 -0.0025033688 -0.14921083 -0.031150948 0.028687768 -0.028729057 0.00010919621 -0.006582484
-0.018947424 0.033401243 0.028042909 -0.029507766 0.016512392 0.0685294 0.044448648 -0.01401695
0.0063824886 0.029144522 0.04329145 0.014368608 0.046577416 0.091649085 0.07361606 0.058333084
0.0011672762 -0.04112828 -0.044568103 0.052684035 0.08986893 0.027651124 0.013002725 0.009217504
-0.02879494 0.009648186 -0.04141828 -0.025377765 -0.024553552 -0.020781852 -0.007851279 0.040846482
-0.028068274 0.020307777 0.009292775 -0.0197803 -0.024771873 0.029539937 0.012673124 -0.028200991
0.0042471425 0.034955435 0.031394567 0.021166205 -0.025737237 -0.029429296 -0.017905269 -0.03877941
-0.040107995 0.023909152 -0.03302335 -0.0287107 0.011445641 -0.018174216 -0.009972261 -0.0055090976
0.04566452 0.037074726 -0.028575739 -0.02488849 -0.0044831503 0.021765392 -0.03515071 -0.0040003983
-0.030967483 -0.023039391 -0.012162974 -0.014562418 0.020087054 -0.0266065 -0.045326896 0.04885747
0.0374932 -0.013572739 0.041431263 0.028280308 0.026876694 -0.0011687482 -0.002122991 -0.0005684626
0.035529945 0.05166145 -0.04582223 0.031406637 0.035999976 -0.01709093 0.039753266 -0.017618027
0.037056196 0.03573612 0.0031468782 0.04580677 -0.01531892 -0.03150212 0.034219906 -0.024224803
0.001798123 0.039156314 -0.031124527 -0.027444646 0.0018451101 0.008202755 -0.0020581295 0.007901989
0.0034097605 0.017475767 0.03273284 0.046481382 0.03796437 0.03585563 0.019759273 0.033641737
-0.05476063 -0.028855594 0.0064511234 0.02746028 0.0038743867 -0.017824141 0.016986577 0.011150486
-0.011805513 -0.079130374 -0.016469942 -0.11262496 0.09578365 0.1535099 -0.034697495 0.028287822
0.03717526 -0.049585782 0.026669597 -0.010580797 0.01584982 -0.015987635 0.03540251 -0.023018355
-0.012302108 -0.03536271 0.040068462 -0.010038404 0.005388878 0.03440657 -0.014565133 -0.008197859
0.00532301 0.030819656 0.010959452 -0.006824675 -0.035585675 0.0047636656 0.005891769 0.009855386

model.5.bias f4 [3]
00000000: f530 153d 3fe2 d6bc 438a ba3c
0.036423642 -0.02623093 0.022771006
