src/image_upscaler_cnn/model_file/upscaler_model_2x.pth (torch, 177805 bytes, 6 tensors)

model.0.weight f4 [64, 3, 5, 5]
00000000: fb65 423d 17d8 273d e3eb 853d 61ef 5bbd
00000010: c138 1abd 86e4 4cbb 3ced 9c3d a666 963d
00000020: 35f3 623b beea da3d a3c3 c53d 1826 893d
00000030: f5f8 523d 9f0e dcbd 53ee c2bd f991 b63c
00000040: 0d6b abbd 9f4b c53d 784b 813d 42b3 043d
00000050: 7a76 7f3c eb9d 983d 5734 8b3d 912e 173d
00000060: 0b00 893d b035 debd 43e5 edbd 3960 153d
00000070: e910 abbd 7106 b3bd b8fb b03d 9f28 9d3b
00000080: 61c0 a2bd 59b6 613c 4f8f 6fbd a8f4 b33d
00000090: a06a 823b 74be c43c 0f36 f0bd cebc 6d3d
000000a0: 0c52 f8bc 8277 9b3d 232a a9bd 9b23 363d
000000b0: ba8c 86bc deca a33b 520e 95bd 68c0 b2bd
000000c0: ff50 dcbc 6cd0 dd3c 6766 893c 13aa a83d
000000d0: 670d 753b 7097 cabd edd5 32bd 8353 82bc
000000e0: 3d3f 2a3d 6b27 36bd d021 e23d ce1c 373d
000000f0: dae0 b43d e943 e83d cffe 983d d8bf 783d
00000100: e11d d13d 36c9 e0bd 56fa 153a 89d0 573c
00000110: 677e bcbd ca59 d4bd 25de 923b f9fe a93c
00000120: 7d25 8cbc 80b6 ff3c 8802 463d b4f9 9a3d
00000130: 38b5 a2bd bbc0 20bd 9bf0 263d 1c71 aabd
00000140: f295 973c 62a3 533d ba10 ae3d b405 843d
00000150: 21b7 123d 5bed d23d 7dee b13d bd7f f13d
00000160: b58d f83c 4774 0cbc ec36 5d3d 473d e03d
00000170: b6bd 13bc 9c3f 97bd 30d7 0cbd ef3b a63c
00000180: 7b64 d7bc c9dc 87bd af0d d33c 9e42 aabc
00000190: bd60 aebd 2b07 81bd 7359 c3bd c587 80bc
000001a0: 3e2c 5cbd cf79 023d b82a e03d a02b 883d
000001b0: 4233 e5bc fb58 a4bc 90eb 743c d3b0 69bd
000001c0: e270 9d3d bea2 153d 55cf 62bd 4046 b33d
000001d0: d393 f43d 16fb 0cbd 1159 c73d a973 c2bd
000001e0: 44b8 003c c21b c83d 39ec 873d 4a05 92bb
000001f0: c444 3b3d c900 483c db75 a93c 614d eb3d
00000200: 05c1 263d 0ba1 5d3d 300b 2abd 4458 84bd
00000210: 90b3 a73d fa90 483c 2a6f 24bd 9674 57bd
00000220: 5639 e63d 6875 35bd 0dbf c4bd 0951 89bd
00000230: 85c6 723d 36bf e43d 540c 67bc 0a35 cfbd
00000240: 876c 1dbc 2e59 febc 52d2 d3bc 93d6 0a3d
00000250: 8770 f53b 678e a23d c8bc 28bd acc9 843d
00000260: 2e97 a7bd 056c 7dba 7bef ecbd d58e 31bb
00000270: 1eff ae3c efa0 c03d 9203 b8bd fd0b afbc
00000280: efc9 b8bd 85b3 31bd 42cc 5b3d 2981 433d
00000290: 200c 3c3d 9602 9fbd 694b ba3d a27d 883d
000002a0: 2d17 8dbd d902 e8bd 6895 bd3d 7d4f a3bd
000002b0: c910 883d b062 80bd fe71 b93d dd39 b63d
000002c0: 0ffb 063d be44 923d e99d 2e3c e1dc 633d
000002d0: bc0e 0cbd a1f1 c13d 37bf 9dbb 8efb 83bd
000002e0: 2d81 afbc ff11 35bd 863f 8dbc fa73 03bd
000002f0: 3220 62bc 23a8 b53d 1ff4 b83d 1ee7 da3d
00000300: 945d b43d 3e98 54bd cae1 bf3d de3d 8e3d
00000310: 6f77 493b b108 a83d 93ff e1bd 7884 d73d
00000320: b94b 993d 61cc 5e3d c411 b83d 864d dc3d
00000330: 92dd dc3c 63c8 4abd f18d 9f3d 1823 72bd
00000340: 8549 64bd 5316 f23c 8e66 cdbd 6a1a d1bd
00000350: 3707 d4bd 87c9 8abd 291d 36bd 8f00 043d
00000360: 0501 57bc 37ab 343c 73e7 003d 56a4 d93d
00000370: 006f a9bb 3036 b03d 5b1f abbb cfdb a5bd
00000380: 9e11 c0bd 2e46 92bd 92bb b4bd 56be 003b
00000390: fde5 32bd a171 493d 46b3 633d 2b5e ce3d
000003a0: 7ff8 a7bd 3148 5c3c 16dd f2bc ff7f 883d
000003b0: 56e2 573d 8096 963b 25a9 573d 41af d63d
000003c0: 546f ad3c 6bb6 43bc eef2 8e3c c37d af3c
000003d0: a454 ac3d 2c59 af3c f6c1 44bd 4e54 d23d
000003e0: e1f9 2b3d b4e9 bcbd 9edf 853d 43b4 a43c
000003f0: 985e 8abd f797 15bd bdb6 b43c 0160 6f3d
0.047460537 0.040977564 0.065391324 -0.053695086 -0.03765178 -0.003126414 0.07662436 0.073437974
0.0034629826 0.10689305 0.09656455 0.06696719 0.051506955 -0.10744976 -0.09518113 0.022286402
-0.08370028 0.09633564 0.06313223 0.032397516 0.015592212 0.074519955 0.067970924 0.036909644
0.06689461 -0.10850084 -0.11615994 0.03646872 -0.08352835 -0.08741463 0.086417615 0.004796102
-0.079468496 0.013776385 -0.05848628 0.08786899 0.003979996 0.024016596 -0.11729061 0.058041386
-0.03031256 0.07591154 -0.0825999 0.04446755 -0.016424526 0.004998549 -0.07278122 -0.08728105
-0.02689409 0.027076922 0.016772462 0.08235564 0.0037392022 -0.09892166 -0.043661047 -0.015908962
0.041564215 -0.044471186 0.110416055 0.044705205 0.088319495 0.11341078 0.07470476 0.06072983
0.10210777 -0.10975878 0.0005721202 0.013172277 -0.09203797 -0.103686884 0.004482048 0.020751463
-0.01710772 0.031214952 0.048342258 0.07567158 -0.07944721 -0.039246302 0.040756803 -0.08322355
0.018504117 0.051669486 0.08499284 0.064464 0.035819177 0.10299178 0.08688066 0.11791942
0.030341009 -0.008572645 0.054007456 0.10949188 -0.009017399 -0.073851794 -0.034384906 0.02029225
-0.02629303 -0.06633908 0.02576336 -0.020783719 -0.08514545 -0.06300195 -0.095385455 -0.01568974
-0.05375313 0.031854447 0.10945648 0.06648946 -0.027978543 -0.02006196 0.014948741 -0.0570534
0.07687546 0.036532156 -0.05537351 0.087536335 0.11942258 -0.03441914 0.09733785 -0.09494717
0.007856432 0.097709194 0.06636853 -0.004456197 0.045719877 0.012207218 0.02068608 0.11489368
0.04071142 0.05410866 -0.041514575 -0.06462148 0.08188546 0.012241596 -0.040145077 -0.05260142
0.11241405 -0.04430142 -0.096067525 -0.06704909 0.059271354 0.11169283 -0.01410206 -0.10117538
-0.0096083945 -0.031048384 -0.025857124 0.03389604 0.007490221 0.07937317 -0.04119566 0.06483778
-0.08183132 -0.000966728 -0.11569115 -0.0027093191 0.021361884 0.09405696 -0.08985056 -0.021368021
-0.09022891 -0.043384094 0.053661592 0.0477306 0.04591 -0.07764165 0.090964146 0.066645876
-0.06889186 -0.11328668 0.092570126 -0.079741456 0.066438265 -0.06268823 0.090549454 0.08897755
0.032954272 0.07142018 0.010657766 0.05563057 -0.03419374 0.09469915 -0.0048140544 -0.064444646
-0.0214239 -0.044206616 -0.017242204 -0.032093026 -0.013801621 0.0886996 0.090309374 0.10688613
0.08806911 -0.051903002 0.09369238 0.06945394 0.0030741354 0.08204783 -0.11035075 0.10523313
0.07485146 0.05439413 0.089877635 0.10756974 0.026961122 -0.04950751 0.07790745 -0.0591155
-0.055734176 0.02955166 -0.100293264 -0.10210116 -0.103529386 -0.067767195 -0.044461403 0.032227095
-0.013122802 0.011027149 0.031470727 0.10627048 -0.005170703 0.086040854 -0.0052222437 -0.08098566
-0.0937836 -0.07142292 -0.08824839 0.00196447 -0.043676365 0.04918063 0.05559089 0.10076555
-0.08201694 0.013444946 -0.029646438 0.06665038 0.052706085 0.0045955777 0.052651543 0.10482646
0.02117125 -0.011945347 0.017449822 0.021422273 0.084145814 0.021404825 -0.048036538 0.10269986
0.04198635 -0.09224263 0.06536792 0.020105487 -0.067563236 -0.036521878 0.022059793 0.058441166

model.0.bias f4 [64]
00000000: 746f 933c 9b6e d23d 9679 dbbd f6d3 bcbd
00000010: eb9c 433c aab1 ed3c 00ac b23d 83b8 da3d
00000020: 9ab1 47bd ec2b 8c3d 5f6f a1bd fc79 203c
00000030: 8e84 803d e07b cd3d 863a e13d 75a2 cd3d
00000040: 3051 f6bc 2183 c83d 1bd4 d33d d34c 9c3b
00000050: b8d4 db3d 3c0e 76bd 3b4b a23d cf6d cdbd
00000060: 1fa0 eabd 71d3 86bc a9ed 633d f8e0 e2bc
00000070: 7451 a8bc 4acb ce3d 6de3 45bd dc11 28bd
00000080: fe00 cf3d 4de9 41bc 9bcf 46bd 5a5e f43b
00000090: 0a68 7dbd 8911 8bbc d1e7 363d e1bf 75bd
000000a0: 59eb 5abd efe3 a03c 1280 8f3d e6ed d83c
000000b0: a4b7 64bd a81f 983b bfae c73c 073e a63d
000000c0: f4c8 733d 198c 8f3d 551a 7d3d 4e56 e23c
000000d0: 49b1 f2bc 491b af3d 8a06 29bd 092f 423d
000000e0: d984 c73d 1fab b0bd 916b 623c a67b a9bd
000000f0: 5183 57bd fa45 bf3c c8be 95ba 9cc6 b83d
0.01799748 0.102750026 -0.1071655 -0.09220116 0.011939268 0.02901538 0.08724213 0.10679724
-0.04875336 0.06844315 -0.078825705 0.009794708 0.06275283 0.10033393 0.109974906 0.10040752
-0.03006801 0.09790636 0.1034319 0.0047699003 0.10733932 -0.06007217 0.07924505 -0.1003071
-0.11456322 -0.016458245 0.055646572 -0.027695164 -0.020546652 0.10097368 -0.048312593 -0.041032657
0.10107611 -0.011835408 -0.04853783 0.0074575366 -0.061866798 -0.016976135 0.04465467 -0.059997443
-0.0534471 0.019639937 0.07006849 0.026480626 -0.055839196 0.0046424456 0.024375318 0.081172995
0.059517816 0.070091434 0.06179269 0.027629044 -0.029625552 0.08550126 -0.041266 0.047408137
0.097421356 -0.08626389 0.013819591 -0.08275537 -0.052615467 0.023348797 -0.0011424655 0.09022257

model.2.weight f4 [64, 64, 3, 3]
00000000: 9468 0e3d 0990 b2bc 710b 783c 3c1f 5639
00000010: 59d4 a13c 15ef 883c 7a71 2d3d 8fba 1d3d
00000020: 59eb 33bc 15b9 113d 4973 b13b 44cb c23c
00000030: 7200 82bc 62f2 06bd bfc6 6f3c f194 093d
00000040: 52b5 523c 7ed9 24bc e9f9 743c 47f1 313d
00000050: 5493 fa3c d433 9dbc 2c0a edbc 569b d73c
00000060: 44b4 83bc 339e d6bb f44d 9fbc 4e6c 05bb
00000070: 4180 2f3d 449a 973c f405 3d3d 4934 0a3d
00000080: 4008 8a3c bc41 09bc 0068 4cbc 1e53 dcbc
00000090: fb08 46bc 4fbe f9bb 1d23 823c cd8d ea3c
000000a0: 3a32 d23b 6ea7 213d c3cd ca3c 0e5f 02bd
000000b0: acca e13c b28c 0f3d 3a67 c53c 5682 85bc
000000c0: ffce cb3c 14c8 323d 464e 0a3c 0104 133c
000000d0: 7fb7 d73c 97ff b63c 7f81 a7bc d901 a23c
000000e0: 8dc8 12bd 6554 41bc 0cfb 0a3d 4f1d cebc
000000f0: 4a9e a53b 1073 a33c ea74 653c c44e 763b
00000100: 70db 40bb c4c8 953c 41ae 06bd 1f52 9a3c
00000110: 4f09 01bd d34f ebbc 7ddb f1bb f2c7 8d3c
00000120: 3b5d 40bd d850 893d 052e cb3c fe24 923c
00000130: 707a a2bb 82e8 0b3d 40b8 4abb 1e17 103b
00000140: cca6 073d 6546 863c 2eef 88bc 7ae6 5a3c
00000150: 7756 393d 83e3 64bc 62e7 3a3d bf6c a2bb
00000160: 2a9b edbc 8038 113d 407f dd3c 0f10 f8bc
00000170: cf98 c3bc 114d e0bc 7708 903c b4be dbba
00000180: 03d7 d83b 727f d43c fba5 ecbc 2f74 4b3d
00000190: 8b90 a3bc 917e cc3c 5357 c1bc f139 debc
000001a0: 3059 ebbb 7b32 8c3c efa7 093d f25b 303d
000001b0: d8b1 f1bc 0ea8 6fbd 7cc7 f2b9 c232 823c
000001c0: 92ae 063d 5e63 c93c 51a3 63bc 4a0b cb3b
000001d0: 8e7d 36bc 9a96 55bc 1df1 4d3c 1f8d 89bc
000001e0: ed4a 9b3c 6aa4 bcbc ac69 68bc 6a5b 23bd
000001f0: 878c 26bd 0764 0fbc cd78 b93c 6616 aaba
00000200: 78b8 00bd 3775 003d ef05 a2ba 591e 6bbb
00000210: d2d2 eabc 194f babc 758a 77bc 1af1 833c
00000220: 8cca 363d d8e8 473c f919 ed3c befe 17bd
00000230: fe04 e23c b68c 453c b244 393c a47f 2f3d
00000240: be3f cd3c c9c0 dbbb c7fe 853c c588 3ebb
00000250: 72c3 fdbc e4da 1c3a 05ba 823c 78a3 e1bc
00000260: 25ce 15bd a1b4 23bd f499 133d 4cea 4cbc
00000270: a188 d4bc 946f 013d 40d9 9a3c 395c c4bc
00000280: d7af 1fbd b831 df3c d289 ed3b c5b2 0c3c
00000290: 5dbd fabc 8fc2 09bd 26a3 233d 97f8 223c
000002a0: 3d77 afbc b0ae 723c 6d7a 01bc 99f1 f63c
000002b0: 52cf 92bc 6908 54bc 3749 0b3d d209 aabc
000002c0: 4219 2ebc 45dd c53c 2e20 133d d64e debc
000002d0: fc7c 23bd 487c 123d f608 be3c a910 2b3c
000002e0: bab5 00bc 2cac 8abc b441 70bc 77b1 4dbc
000002f0: fa5e 503c 6d30 193d c52a 7e3c f60d 183d
00000300: 4c90 17bc 4dbd 97bb c2c8 aabc aaf3 4f3b
00000310: 2933 75bc bbea dabb bfb8 d7bc 4e52 89bc
00000320: 8af7 97bb 4b76 4dbc d39d 21bc 8966 d5b8
00000330: 916e 263a 52e9 2cbd 717b cd3c 77ab d638
00000340: 4318 1f3d e3c6 b5bc aba0 febc ecb8 90bc
00000350: 3dd9 8ebc e648 ac3c 948e 0e3d 375b 0dbb
00000360: e8e3 1b3d e3a7 ea3a 0a3e 423d d85a 033d
00000370: b23e 613c 1fd6 b3bb 165b 673a 8d9e 143c
00000380: 7163 18bc aff0 af3c 5ce0 e83c 2ed4 8dbc
00000390: 1f4b 07bd d570 6d3c 0775 2e3c d382 4a3b
000003a0: cab3 47bd 56cc c33c bc93 29bd 5c17 153c
000003b0: a269 a23c addb a3bc 9aca 9bbc d001 f5bb
000003c0: 7f92 47bc 5e02 663b 2a7d fdbc 8ec5 4a3d
000003d0: 5cea c33c a84d 0ebb 13b4 973c 813b 073c
000003e0: 2b0e a13c 5adc 21bc d258 18bc 7ab4 073c
000003f0: 2b87 103d 122f 62bc c652 fa3b 49bc 88bc
0.034767702 -0.021797197 0.015139447 0.00020420266 0.019754576 0.016715566 0.042344548 0.038507994
-0.010981404 0.0355769 0.0054153544 0.023778565 -0.015869353 -0.032945998 0.014634787 0.033589307
0.012860613 -0.01006162 0.014952161 0.04344299 0.03058783 -0.019189753 -0.028935514 0.026319187
-0.016077168 -0.0065496205 -0.01944635 -0.0020358744 0.04284692 0.018506177 0.046148255 0.03374127
0.016849637 -0.008377489 -0.012475967 -0.026895102 -0.012087102 -0.0076215635 0.015885884 0.028632069
0.006414679 0.039466314 0.024756318 -0.031828932 0.027562462 0.035046287 0.024097074 -0.0162975
0.024878977 0.04364784 0.008441513 0.008973123 0.026332615 0.022338672 -0.02044749 0.019776272
-0.03583579 -0.011799906 0.033930823 -0.02516046 0.00505427 0.019952327 0.014004925 0.003758357
-0.002942767 0.01828421 -0.032881025 0.018837987 -0.031503018 -0.028724587 -0.0073809014 0.017307255
-0.04696391 0.06704873 0.024802217 0.017839905 -0.0049584433 0.034157284 -0.0030932575 0.0021986435
0.033118054 0.016390989 -0.016715612 0.013360614 0.045248475 -0.013970259 0.04563082 -0.004956811
-0.029004652 0.035454273 0.027038217 -0.030281095 -0.023876576 -0.027380498 0.017582161 -0.0016765208
0.0066174283 0.025939677 -0.02888774 0.04967135 -0.019966384 0.024962695 -0.02360121 -0.027127238
-0.007182263 0.017113915 0.03360742 0.043056436 -0.029503748 -0.05850988 -0.00046306464 0.015893344
0.032881327 0.024583515 -0.013893918 0.006196414 -0.011138333 -0.0130363945 0.012569693 -0.016790925
0.018956626 -0.023027617 -0.01418535 -0.0398821 -0.04066136 -0.008751876 0.02264061 -0.0012976646
-0.031425923 0.031361785 -0.0012361387 -0.0035876243 -0.02866498 -0.022742795 -0.015108694 0.016106177
0.044626758 0.01220151 0.028943049 -0.037108175 0.027590271 0.012057474 0.011307882 0.042846337
0.025054809 -0.0067063314 0.016356839 -0.002907322 -0.030976985 0.0005983545 0.015957842 -0.027543768
-0.036573548 -0.039967183 0.036035493 -0.012507033 -0.025944056 0.03160055 0.018902421 -0.023969756
-0.038986053 0.027245387 0.0072490955 0.008587544 -0.030607874 -0.03363281 0.039950512 0.009946964
-0.021419162 0.014812157 -0.007902724 0.0301445 -0.017921124 -0.012941458 0.03400537 -0.020756636
-0.010626139 0.024153361 0.03591936 -0.027137201 -0.039914116 0.035763055 0.023197632 0.010440984
-0.007855827 -0.016927801 -0.014664102 -0.012554518 0.012717957 0.037399698 0.015513127 0.03712269
-0.009250712 -0.0046307207 -0.020847682 0.0031730928 -0.014965811 -0.006680814 -0.026333211 -0.016762879
-0.0046376633 -0.01254041 -0.009864288 -0.0001017573 0.0006348873 -0.0422147 0.025083276 0.00010236253
0.038841497 -0.022189563 -0.031082472 -0.017666303 -0.017437572 0.021030854 0.03480394 -0.002156926
0.038059145 0.0017902817 0.047422446 0.032069057 0.013747858 -0.0054881717 0.00088255235 0.009071005
-0.009301052 0.021477072 0.028427295 -0.01731309 -0.033030625 0.014492233 0.010648019 0.0030900731
-0.048755445 0.023901146 -0.041400656 0.009099808 0.01982576 -0.02000221 -0.019017506 -0.0074770227
-0.0121809235 0.0035096626 -0.030943472 0.04950481 0.023915462 -0.0021713767 0.018518483 0.008253933
0.019660076 -0.009879196 -0.00929852 0.008282775 0.035285156 -0.013805168 0.007639262 -0.016691344

model.2.bias f4 [64]
00000000: 6e14 08bd 174b 19bd 72df af3a 1bd6 133d
00000010: e545 13bd 154b dbbc f4de 463c 135e 103d
00000020: b02b 4c3c ab6c ac3c 3d80 a4bb c684 0fbd
00000030: b254 3a3c b56b 91bb fb1f df3c a792 f03c
00000040: 774c 3bbc 0da5 22bb 0a97 7ebc 2b51 9cbc
00000050: 4468 cdbb 9606 f5b9 afdc c33c 20fc 1a3d
00000060: c80c e0bb 9ef5 f3bb 25a9 99bc 2d9b 8dbc
00000070: 42a2 a4bc 3fa9 2b3d 360e 82bb ac2f 8fba
00000080: e37a 30bd 1b84 3cbc 87af 25bc ca7c 30bb
00000090: c4e7 81bc 69ef 133d 1b85 533a 3096 053d
000000a0: 406c 323c 91db 84bb 5ac4 923c a66f 743c
000000b0: 7054 8a3a 3599 f9bc 30bd f63c 05d2 b33b
000000c0: 0e3e 8a3c dd58 543c 5ba4 37bd de84 13bd
000000d0: 8e3c 823c 75f4 35bd 8033 8f3c 9c41 ff3c
000000e0: d28e 15bb 709c 06bd fc0e 153c 690e 103c
000000f0: 2393 60bb e85a 4c3c d8ad 5a3c 68ce f43c
-0.03322261 -0.037425127 0.0013418032 0.03609286 -0.03595533 -0.0267692 0.012138117 0.035245966
0.012461588 0.02104791 -0.00502017 -0.035038732 0.011372732 -0.0044378885 0.02723693 0.029366804
-0.011431805 -0.0024817616 -0.01553894 -0.019081673 -0.006268533 -0.00046734948 0.023908941 0.0378381
-0.006837461 -0.0074450513 -0.018757412 -0.017285908 -0.020096902 0.041909453 -0.003968979 -0.0010924242
-0.043085944 -0.011506106 -0.01011265 -0.0026929849 -0.015857585 0.03611699 0.00080688455 0.032613933
0.010890067 -0.0040544947 0.017915893 0.014919197 0.0010553729 -0.030468563 0.030119509 0.0054876828
0.016875293 0.01296064 -0.044834476 -0.036015384 0.015898015 -0.044422586 0.017480612 0.031159215
-0.0022820723 -0.032864034 0.009097811 0.008792498 -0.0034267388 0.012472846 0.013347112 0.029883578

model.5.weight f4 [3, 64, 3, 3]
00000000: fbca 1a3d 9af0 32bc 940c 1d3d 6fe4 2cbc
00000010: 6c33 5e3c 2e57 f93c fffb ed3c cd9c dd3c
00000020: a1af e03b 7584 0dbd 5258 e03c a8cf 283b
00000030: 5933 9dba c532 d4bc ab69 42bc 81b2 2e3b
00000040: bc72 8f3b fff2 933c b90c 8cbb 8547 1e3d
00000050: b6ed 16bb 78bb 12bc 4b56 753c 1a5d 1e3d
00000060: 39f7 5dba 7de5 06bd e9af eebc 714d 91bc
00000070: c177 f43c 6f57 03bd c7be 903c b24e ae3c
00000080: f357 1eb9 0a2c 2e3b 1570 15bc 6492 08bc
00000090: bcd3 b13c f53d 19bc 0a8b 8f3c 3c3e 383c
000000a0: e3e6 363d 27e0 65bc 66e0 e1bb f2f5 03bd
000000b0: 2203 d7bc 693a fabc d64f 393c 78c2 d7bc
000000c0: ebfa d83b a48f a33c 1f74 363c 6741 463b
000000d0: 8900 843c b602 3f3d 60ce 153c b7e6 19bd
000000e0: 99d0 b23c 6a65 84bc ba1e 4fbb f098 00bd
000000f0: 1d21 1c3d 69bd 4fbc 3d80 df3c d10d 853c
00000100: b21f 9e3c 1080 bd3c df8e 9ebc 68bf 943c
00000110: eb25 ef3c 32ee 1cbd 76b7 9bbc 29e9 16bc
00000120: 6286 16bd eff5 b33b 7e74 f0bc 5471 d8bc
00000130: 379d c3bc 2309 173c bac1 cbba def5 e63c
00000140: ebd4 ba3c 5d4c f9bc 956f 093d 106f 143b
00000150: e772 813c 8c44 1dbc 5417 c43c ad7b 0b3c
00000160: a85e 59bc 7029 0abd db52 203d 58db 22bd
00000170: 6579 1cba 7cca a23c 1e88 1e3d 6066 2a3c
00000180: 7032 5bba e94b c73c fa52 dbbc 212b ffbc
00000190: ff06 eb3c 635f ebbc 3b33 ef38 da69 d7bb
000001a0: 0629 9bbc efd2 083d a7c6 e53c edad f1bc
000001b0: df18 a23c 76c1 8a3d 1d94 3d3d b7b3 54bc
000001c0: 5463 883b 9b1b f63c d7a0 3d3d 4240 7a3c
000001d0: 5215 4d3d 13e9 913c 7695 e7bb 39e0 49bc
000001e0: 612e dd3c 3992 bebc e222 7bbc 95fe 5b3c
000001f0: 42f0 413d c824 a8bb df57 f93c 9d98 b83c
00000200: e2cb b7bc 0297 c43c 55e2 fdbc 800a 99bc
00000210: 8c91 a3bc 3b0b 6ebc 4826 1dbb f27f 213d
00000220: 4638 ebbc 1e43 ae3c 1a8a 033c 5705 abbc
00000230: f30e bfbc b1ce ef3c c669 3f3c 3666 dabc
00000240: 830a 5e3b 8194 053d 071d ee3c 0dcb aa3c
00000250: 7d41 ddbc f509 f8bc 197c 95bc 5612 1fbd
00000260: 0a8b 21bd ddcf bb3c 6cea 0fbd 6c87 f9bc
00000270: 659e 303c b453 a5bc cbd0 36bc a4d8 cabb
00000280: a032 2e3d e451 0e3d ab17 eabc f2e2 cbbc
00000290: 64e7 92bb 564d b23c 31fa 0fbd c615 83bb
000002a0: 85af fdbc 1bbd bcbc 3647 47bc b372 0ebc
000002b0: 9f03 9f3c d599 cabc ea7b 28bd 3af2 383d
000002c0: 9151 173d 0d70 0dbc bc26 213d 4774 ee3c
000002d0: 6e32 dd3c aaf3 5dbb 9f8e 2bbb fcc5 eeba
000002e0: 8d78 013d ee9e 4d3d f2a5 3bbd 7409 f13c
000002f0: a658 133d 5fdc 8bbc 0afa 223d f424 90bc
00000300: bbdb 173d 3783 123d 1b92 4f3b f1ae 3b3d
00000310: c587 7abc b9f6 00bd 9e1d 073d 63aa abbc
00000320: c8e6 133c 3a34 1b3d 5720 d6bc fcb2 a3bc
00000330: 3858 833b c3d9 3a3c 11fb d6b9 d1fa 073c
00000340: a559 1a3b 4b9b 8a3c 3a8d 053d a2a6 383d
00000350: f92a 1a3d f9e0 153d a2b1 9f3c 4cab 0e3d
00000360: 0bba 3abd 9586 89bc 1f4d aa3c 7126 f33c
00000370: 152e 0d3c 06e6 1ebc 49fe b93c 67f9 943c
00000380: 9309 dfba 995c a1bd 254a 98bc 6438 e5bd
00000390: 61ab bc3d fcbb 133e 9eac 0bbd 4a13 fe3c
000003a0: 7dfb 033d 4e64 40bd 337a da3c 145b 2dbc
000003b0: 7bd7 813c 80f8 82bc 3902 113d fd90 bcbc
000003c0: c88e 49bc 7dd8 10bd d41e 243d 1e78 24bc
000003d0: 2f95 b03b e7ed 0c3d 98a2 6ebc 5050 06bc
000003e0: a56c ae3b 8179 fc3c 468f 333c 86a1 dfbb
000003f0: 49c2 11bd 8618 9c3b be0f c13b 7c78 213c
0.037791234 -0.010921622 0.038342074 -0.01055251 0.013562065 0.030437078 0.029050825 0.027052308
0.006856874 -0.03455015 0.027385864 0.0025758538 -0.0011993452 -0.025903115 -0.0118660135 0.002665669
0.004377691 0.018060206 -0.0042739776 0.038642425 -0.002302987 -0.008955829 0.014974187 0.038663007
-0.000846732 -0.0329337 -0.029136615 -0.017737122 0.02984226 -0.032065805 0.017669095 0.02127776
-0.00015100818 0.0026576542 -0.009120961 -0.0083356835 0.021707408 -0.009353151 0.017522354 0.011245307
0.044653784 -0.014030493 -0.0068932055 -0.032216974 -0.026246611 -0.03054543 0.011310538 -0.026337847
0.0066217086 0.019965954 0.011136084 0.0030251385 0.016113536 0.046633445 0.009143442 -0.037573542
0.021827983 -0.01616164 -0.0031604008 -0.031395853 0.038117517 -0.012679436 0.027282828 0.01624194
0.019302223 0.023132354 -0.019355236 0.018157676 0.029192885 -0.0383131 -0.01900838 -0.009210863
-0.03674925 0.005491964 -0.029352423 -0.026421227 -0.023878677 0.009218487 -0.0015545406 0.02819341
0.022806605 -0.03043192 0.03355368 0.0022649206 0.01580186 -0.009598862 0.023936905 0.008513373
-0.013267197 -0.033730924 0.039141517 -0.039759964 -0.0005969017 0.019871943 0.03870403 0.010400385
-0.0008361703 0.024328189 -0.026772965 -0.031148495 0.02868986 -0.028732007 0.000114059505 -0.006573898
-0.01894046 0.033404287 0.028048826 -0.02950188 0.01978725 0.06775181 0.04628383 -0.0129823005
0.0041622315 0.03004246 0.046295967 0.015274109 0.05006916 0.017811334 -0.0070673777 -0.012321525
0.026999654 -0.023263084 -0.015328141 0.013427396 0.04734827 -0.005131338 0.030437408 0.02253371
-0.022436086 0.023997787 -0.030991713 -0.018681765 -0.019966863 -0.014529045 -0.0023979116 0.03942866
-0.028713357 0.021272238 0.008028531 -0.02087657 -0.023322558 0.029273363 0.011682933 -0.026660066
0.0033880777 0.032612327 0.029066576 0.020848775 -0.027008766 -0.030278185 -0.018247651 -0.038835846
-0.03943924 0.022926265 -0.03513567 -0.030460082 0.010779952 -0.020181514 -0.011158179 -0.0061903764
0.04252875 0.034746066 -0.028575739 -0.02488849 -0.0044831503 0.021765392 -0.03515071 -0.0040003983
-0.030967483 -0.023039391 -0.012162974 -0.008694339 0.019410906 -0.024731556 -0.0411338 0.04515288
0.036943022 -0.008632672 0.03934358 0.02910818 0.027001586 -0.003386716 -0.0026177538 -0.0018216963
0.031609107 0.050200395 -0.045812555 0.029423453 0.035973214 -0.017072855 0.039789237 -0.017595746
0.037074786 0.035769667 0.003167278 0.045821134 -0.015291159 -0.031485293 0.03298723 -0.02095527
0.0090271905 0.037891604 -0.026138468 -0.019982807 0.004008319 0.0114044575 -0.0004100432 0.008299545
0.0023551967 0.016919753 0.032605387 0.04508079 0.03763864 0.036591504 0.019493882 0.03483133
-0.04558758 -0.016787807 0.020788727 0.029681416 0.008616944 -0.009698397 0.02270426 0.01818533
-0.0017016403 -0.0787899 -0.018590042 -0.11192396 0.092123754 0.14427179 -0.034100167 0.031015057
0.03222226 -0.046970658 0.026669597 -0.010580797 0.01584982 -0.015987635 0.03540251 -0.023018355
-0.012302108 -0.03536271 0.040068462 -0.010038404 0.005388878 0.03440657 -0.014565133 -0.008197859
0.00532301 0.030819656 0.010959452 -0.006824675 -0.035585675 0.0047636656 0.005891769 0.009855386

model.5.bias f4 [3]
00000000: 69d1 133d 1404 fbbc 132e b53c
0.03608838 -0.030641593 0.022116696
