training/models/upscaler_model_2x.pth (torch, 177333 bytes, 6 tensors)

model.0.weight f4 [64, 3, 5, 5]
000000 b1 ce 2f bd 5a 18 ec 3b 71 e2 2e bd d6 93 37 3d
       -0.042921726 0.0072050514 -0.04269642 0.04481872
000010 ca cd 98 3c df 9a af bd 97 0f 7e bd d3 8b 04 bd
       0.018652815 -0.08574461 -0.062026586 -0.03235991
000020 21 7e 17 39 15 d2 72 3d eb 03 54 bd a5 42 8b 3c
       0.00014447469 0.05928238 -0.05176155 0.016999552
000030 65 42 df bd 58 9b aa 3d e1 ac bf bd f9 ae 81 3d
       -0.109013356 0.08330411 -0.09359146 0.063322015
000040 a6 68 b6 3d 70 60 5b bd a3 db a1 3d 49 eb 85 3d
       0.08906679 -0.053558767 0.079032205 0.06539018
000050 59 55 d1 bc ae 23 a5 bd bf 8d d5 3c 3d b7 d6 3b
       -0.025553392 -0.08063446 0.026068566 0.0065526054
000060 ef 73 0d 3d e1 3b 7b ba b3 a4 a9 3d b2 d2 93 bc
       0.03453439 -0.0009583813 0.08283367 -0.018044803
000070 9c 1d b3 bd 3d 66 b1 bd e8 6b 76 3d 9f 1d e0 3d
       -0.08745882 -0.086620785 0.0601615 0.1094315
000080 ce eb c4 3d 52 9b e1 3c 76 35 9b 3d 2d 54 ca 3d
       0.09615289 0.027539883 0.07578556 0.098793365
000090 90 93 86 bd 42 84 f3 bc d7 46 90 bd 69 a8 cb 3d
       -0.06571114 -0.029726151 -0.07044762 0.09944231
0000a0 7a f8 7b 3d c4 88 7d bd 7e 41 1e bc 3a a6 be 3d
       0.061516263 -0.061898008 -0.009659169 0.09309049
0000b0 c7 ac c1 3d 0f 3f cc bd 5b 37 0c 3d 81 90 f3 3d
       0.09456783 -0.09972965 0.03423248 0.11892796
0000c0 d5 cb 10 bd 9b 62 c6 bb 5f 8a f0 3d de 31 ad 3d
       -0.03535064 -0.006054235 0.11745142 0.08456777
0000d0 cc 4b 23 bd df 50 d2 ba 03 07 b5 bd f0 4b 1f bd
       -0.039867207 -0.001604583 -0.08839228 -0.03889078
0000e0 c7 95 b0 3d 1d 74 f9 ba df 44 e8 bd 00 df 73 3d
       0.08622318 -0.0019031797 -0.11341261 0.05953884
0000f0 3b fc ce 3d f5 ca 0d bb ef b7 d5 bd 58 9a ba 3d
       0.10106703 -0.0021635864 -0.10435473 0.0911147
000100 aa e6 93 bd 89 d5 13 bd c3 80 81 bd 0a 30 e0 bd
       -0.0722173 -0.036092315 -0.063233875 -0.10946663
000110 e6 86 f8 3d 7e 5d 8b 3d 99 4d 53 3c 4a 09 c8 3c
       0.12135105 0.068049416 0.012896919 0.024418492
000120 fa 3b 56 bd 6d db f4 bc 47 39 88 3d 6f ae bc 3d
       -0.05230329 -0.029889787 0.0665155 0.09212958
000130 c9 fe 47 3c 8d fe 48 bd d8 08 c0 3c 70 f0 42 bc
       0.012206742 -0.049070884 0.023441717 -0.011898145
000140 9c a7 d3 bd 32 19 de 3d 52 96 bb bd 66 e0 d7 3d
       -0.10334703 0.108446494 -0.09159531 0.105408475
000150 7d e8 d3 3d 37 aa c0 3b 5c 4b ec 3c 38 0b 2b 3d
       0.10347078 0.005879666 0.028844528 0.041758746
000160 b9 9d 95 bd 64 25 23 bd 7a f4 d5 3d 7d 97 21 3d
       -0.07305474 -0.03983058 0.10447021 0.03945111
000170 84 ef 8e bd 04 f2 a1 3d 0c bb d9 3c 84 d4 bb bd
       -0.06979278 0.07907489 0.026578449 -0.091713935
000180 c3 6a 0c bd 5a e4 80 ba d0 58 e6 bd e5 90 e0 3d
       -0.034281503 -0.0009833679 -0.112474084 0.109651364
000190 c1 b2 6f 3d 98 29 8d bd 6b 4a aa 3d 6c d4 b8 bd
       0.058520082 -0.06892699 0.08314975 -0.09024891
0001a0 ed b6 5a 3d 2f de b5 3d c3 eb dd bd c7 c4 40 3c
       0.053397108 0.08880269 -0.108359836 0.011765665
0001b0 e9 a4 3b 3d 50 f5 8c 3d 18 2f f3 3c ba 2b 29 bd
       0.045811567 0.06882727 0.029685542 -0.041301467
0001c0 86 77 b5 bd e6 33 c7 3d bf bf c1 bd 5c 03 d3 3d
       -0.08860688 0.09726696 -0.09460401 0.10303375
0001d0 06 b2 78 bc f3 90 74 3d 4c bf 2b 3d c7 a9 96 3d
       -0.015179163 0.059708547 0.04193048 0.07356601
0001e0 e8 9c 70 3d f9 f5 fc 3c 9d 2e bb bc 6e 21 65 bd
       0.058743387 0.030879008 -0.022849375 -0.055940084
0001f0 f0 22 9e bd fe da b0 bc 7a 77 83 bc bc e1 0c bd
       -0.077215075 -0.021588799 -0.016048182 -0.034394965
000200 f2 e6 a9 3d 47 84 d2 3d 55 e2 a6 bd a3 33 d4 bc
       0.082960024 0.10279136 -0.08148638 -0.025903529
000210 d6 28 88 bc d2 30 8b ba bc 7b 7b 3d 58 18 16 bd
       -0.016621035 -0.0010619408 0.0613973 -0.03664431
000220 8a 60 af 3b 73 4b e0 bb d3 31 d9 bd 8e cf bb bc
       0.0053520845 -0.0068449317 -0.10605206 -0.022926118
000230 fc 87 fb 3c 51 07 a0 3d 64 04 12 3d f9 7e 51 bd
       0.03070449 0.078138955 0.03564872 -0.05114648
000240 85 e1 45 3d 2b 0b 51 3d ae 64 c7 3d cd 0a e0 bd
       0.048310775 0.05103604 0.09736 -0.1093956
000250 ef c9 aa 3b 89 e3 cf 3d b7 bd fd 3a 95 f7 7f bd
       0.0052120606 0.10150821 0.0019358908 -0.062491972
000260 1b 3c cd 3c 1a 40 a0 bc 9a ca 0a 3d da 5e cf 3b
       0.025053075 -0.019561816 0.033884622 0.006328446
000270 84 12 9d 3d e2 3b 5a ba cf 0f b1 bc f9 fa e5 bd
       0.07669547 -0.0008324963 -0.021613983 -0.1122951
000280 37 fc 0f 3d 66 b6 37 bd d0 2d b7 bd 4c 30 9b 3c
       0.03515264 -0.044851683 -0.08944285 0.018943928
000290 19 77 c9 3d 7a f5 90 3d 85 8a c0 3d a9 b8 4a bd
       0.09837169 0.07078071 0.094014205 -0.049492512
0002a0 44 15 24 3c 67 2e 24 3d db c9 e6 bc 7e 89 90 bb
       0.010014836 0.040083315 -0.028172424 -0.0044109216
0002b0 4c 60 de 3b c8 53 22 bd df 63 4d 3d 2a b5 cb 3d
       0.006786382 -0.03963068 0.050144073 0.09946664
0002c0 ca 11 87 3d 44 bb b3 3d dd 07 6a 3c fb b8 dc bd
       0.0659519 0.087759525 0.014284101 -0.1077747
0002d0 a0 7a 31 bd 35 52 97 bd f6 84 4a 3d 47 ea cb bd
       -0.043329835 -0.073887266 0.049443208 -0.09956794
0002e0 16 50 c4 bb fe 85 e2 3d c2 1b 42 bc 84 05 1b 3c
       -0.0059909923 0.11060713 -0.011847438 0.009461764
0002f0 87 24 cd bc a2 35 c9 3c b7 95 c9 3d ed 95 48 3b
       -0.025041832 0.024561707 0.09843009 0.003060694
000300 c4 89 54 bd 91 1b 95 bd d8 a3 f5 bc 8f 06 d3 3d
       -0.051889196 -0.072806485 -0.029985353 0.10303985
000310 2f c0 cb 3d 39 56 e9 bd 00 13 c7 3d c5 a7 4f bb
       0.099487655 -0.11393399 0.09720421 -0.0031685692
000320 d8 a1 38 3d fd d6 82 3d 75 ee b6 3c 2b 6b 7d bd
       0.04507622 0.06388662 0.022330502 -0.06186978
000330 41 9c c7 3d 88 ca e3 bd 9d 7f d0 bd cc 56 7c bd
       0.097466 -0.11122614 -0.1018059 -0.061606213
000340 e5 4f e7 3d 9d 3d 7b bd cb a6 b9 3c 9f b3 8e bd
       0.112945355 -0.061338056 0.02266254 -0.06967854
000350 da 4e 8b 3d 29 69 4a 3d 7f 79 3c 3d 71 02 2d 3d
       0.06802149 0.049416695 0.046014305 0.042238656
000360 68 14 e0 bd 03 3a c6 3d 04 49 9b bb 95 0d b4 3c
       -0.10941392 0.096790336 -0.0047389288 0.021979133
000370 18 6d 17 bd cc aa 45 3c be 82 b9 3d ef 02 ed 3d
       -0.036969274 0.012064647 0.0905814 0.11572825
000380 7d 8b bb bd d0 73 9e bc 9f 85 cc bd e6 18 81 3d
       -0.09157465 -0.019342333 -0.09986424 0.06303577
000390 13 05 45 3d ac 79 9c bd 7d 7c 62 bd ea d8 e6 bc
       0.048100542 -0.076403946 -0.055294503 -0.028179605
0003a0 d8 b0 8d 3d 5b 4f f5 bd b8 5e 99 3c 0e 8c 64 bb
       0.06918496 -0.119780265 0.018721923 -0.0034873518
0003b0 52 96 b9 3d 05 06 f5 bc 5d 29 4a 3c 74 37 80 bd
       0.090618744 -0.029910097 0.012338963 -0.06260577
0003c0 34 8b c3 3c 13 77 3e bd cf d5 35 3d e2 ef c9 3c
       0.023870088 -0.046500277 0.044393357 0.024650518
0003d0 83 7e ab bd 6a d9 e6 bc 01 45 32 3d 69 b3 c0 3d
       -0.083737396 -0.028179843 0.04352284 0.0940922
0003e0 d3 37 21 3d fc e2 7b 3d bf 90 e7 3d f6 00 cd 3c
       0.03935988 0.061495766 0.11306905 0.025024872
0003f0 d7 fa 77 bd 50 e0 df bd 66 b8 86 bd 55 83 f7 3d
       -0.060541954 -0.10931456 -0.0657814 0.120855965

model.0.bias f4 [64]
000000 de 52 9d bd 97 41 94 bd 5c 7a a3 3d e4 04 92 3b
       -0.07681821 -0.07239073 0.079823226 0.0044561494
000010 80 70 63 3d 58 d0 83 38 fd 87 c6 3c ad 68 ad 3b
       0.05552721 6.285374e-05 0.024234766 0.0052920193
000020 72 bc 3f bd 92 67 a0 bd 81 32 d9 3d 58 ad c0 3d
       -0.046810575 -0.078322545 0.10605336 0.09408063
000030 19 ab a5 3c 4e a3 b1 3d 38 a0 80 3d 08 3c 05 bd
       0.020223187 0.08673726 0.06280559 -0.032527953
000040 19 93 1b bd df 9b 87 3d e7 8d bf bd 24 f8 9d 3d
       -0.03798208 0.06621527 -0.093532376 0.07713345
000050 7f ea 4e bd b6 87 13 bd e9 78 fb 3d 76 79 eb bc
       -0.0505166 -0.036018096 0.12278921 -0.02874444
000060 12 bd be bd 28 26 ca 3d 7c 7d 0d bd 83 cd 8e bd
       -0.09313406 0.09870559 -0.0345435 -0.06972792
000070 64 92 c2 3d 83 81 ac bc 47 a4 8c 3c 7e c4 f3 3d
       0.09500578 -0.02105785 0.017168177 0.11902712
000080 02 63 05 bd 46 47 4e bd 51 40 7f 3d 30 30 d8 3d
       -0.032565124 -0.05036094 0.062317196 0.10556066
000090 d9 9a 70 3c db ac 80 bd 32 d6 8f 3d 55 ef 34 3d
       0.014685356 -0.062829696 0.070232764 0.044173557
0000a0 15 6e 80 3d 80 cb aa bd 75 72 c6 3d 54 b7 6b bc
       0.062709965 -0.08339596 0.096898 -0.014386971
0000b0 a6 2a 1b 3d 65 30 a7 3c cb d4 da bd be 0c 67 bd
       0.03788247 0.020408818 -0.10685118 -0.056408636
0000c0 b7 73 04 bc aa 7c 93 bd b0 f8 59 bc d2 22 3c 3d
       -0.008084229 -0.07201512 -0.013303921 0.045931645
0000d0 5b 84 ea 3b 7f b2 86 3b 6c de 0a bd bd ed b4 bd
       0.0071568913 0.004110634 -0.033903524 -0.088344075
0000e0 ef 7f bd 3d 39 7b 6d 3d 43 6e 91 3c f2 94 ca 3d
       0.09252917 0.057978842 0.017752772 0.0989169
0000f0 93 5f df 3c f0 a2 69 3d ac bc bf 3d 9d 7e 60 3d
       0.027267253 0.057040155 0.09362158 0.054808248

model.2.weight f4 [64, 64, 3, 3]
000000 1d 24 63 3d 20 8b 30 bd 35 b3 14 3d ef 30 0b 3d
       0.055454362 -0.04310143 0.036303718 0.033982214
000010 e0 62 86 3c af b9 5b bb ac 1d a3 bc 8d a4 0b 3d
       0.01640457 -0.0033527424 -0.01991161 0.034092475
000020 3b 2e 9c bc c4 22 3e bd d8 5d 2e bd 17 79 01 3d
       -0.019065013 -0.046419874 -0.042569965 0.03160962
000030 60 f3 98 3c 86 a3 ab 3c 69 68 bb bb 49 4b eb ba
       0.018670738 0.020951997 -0.005719234 -0.0017951514
000040 e4 ca 36 bd f6 13 b1 bc e8 0f ae bc 80 5c e0 bc
       -0.044627085 -0.021615963 -0.021247819 -0.027387857
000050 3e 83 33 3c 73 f2 e5 3c 60 bf 13 bd 51 2b d5 ba
       0.010956584 0.02806971 -0.03607118 -0.001626352
000060 f1 d9 f1 3c 57 0b 96 bc 22 14 2d bc 68 1b 53 3b
       0.029522868 -0.018315954 -0.010563882 0.003221238
000070 66 60 04 3c 5f 76 93 3b 8d 34 f2 3b 14 b7 ab bc
       0.008079624 0.004500195 0.0073915184 -0.020961322
000080 fe 4f 13 3d 6b b8 83 bc 7f a0 00 3d 13 c5 ef 3a
       0.03596496 -0.016079148 0.03140306 0.0018292986
000090 62 c4 79 3d 8c 2f 42 3d 0e a6 70 3d 15 c1 1d 3c
       0.0609783 0.047408625 0.058752112 0.009628554
0000a0 5e 15 e0 3c f7 b4 39 3d e1 af a8 3c a4 37 4d 3c
       0.027353939 0.045338597 0.020591678 0.012525473
0000b0 7c 31 36 3d ce 1d 92 3c 17 82 9e 3c c6 89 f4 bc
       0.044480786 0.017836478 0.019349141 -0.029850852
0000c0 d5 57 db bc 42 4f 68 3c 5b e6 e8 bb 93 f8 2b bd
       -0.02677528 0.014179053 -0.0071075386 -0.041985106
0000d0 ea 91 1e bc f0 48 df 3b d6 05 e4 bc fc f8 12 3c
       -0.009678343 0.0068141147 -0.027834814 0.008970495
0000e0 ab 1f 9f bc 76 4a 8e bc de 1e c5 bc cd 95 66 3d
       -0.01942428 -0.01736949 -0.02406257 0.056295205
0000f0 9b 91 fe 3b b9 6f 34 bb 6b 0f 1c 3d 66 0d 0e bd
       0.0077688224 -0.0027532412 0.03810064 -0.034680746
000100 16 b2 08 bd 09 b4 83 bc 59 88 26 3d ea d3 47 3c
       -0.03337296 -0.016077058 0.040657375 0.01219652
000110 26 02 46 bd d5 0e d2 bc 78 81 4d 3c 79 ee 98 3c
       -0.048341893 -0.025641838 0.012543075 0.0186684
000120 9c 5e 94 3d 28 c0 97 3d d4 17 fa 3c 51 e6 66 bc
       0.07244608 0.07409698 0.03052894 -0.014092998
000130 cc f2 83 3c 4c 0b a3 bc 7f 24 85 bc 81 b1 21 bc
       0.016106986 -0.019902848 -0.016252754 -0.00986898
000140 fd b3 62 bd 02 69 cc 3c 36 3e ae bc 63 17 0a bc
       -0.05534743 0.024952415 -0.021269899 -0.008428427
000150 87 f3 d8 3c 7d 7c a6 bc 3f ba 6b 3c b1 6a b5 bb
       0.02648331 -0.020323033 0.014387666 -0.0055364002
000160 79 87 3b 3d ea f2 82 3c 6d 78 1f bd 20 69 2f 3d
       0.045783494 0.015984971 -0.038933206 0.042824864
000170 1b c9 55 3c b8 11 1a 3c 11 42 9e bb 84 b7 1d bd
       0.013048436 0.009403639 -0.004829653 -0.038505092
000180 47 3f d3 3c 8b 3f 8b bc 01 b3 c3 3c 3f d6 bc 3c
       0.025787009 -0.016998073 0.023889067 0.02305138
000190 55 40 14 bd e5 2c 1e 3d da ba e4 3c 91 19 5f bc
       -0.036194164 0.038617034 0.027921129 -0.013616935
0001a0 2f e5 f8 3c db 04 f9 3a bd 29 26 bd bd 0c 6c 3c
       0.03038272 0.001899864 -0.04056715 0.014407334
0001b0 8b 0f 8e bb 49 78 b1 3c ee f0 b8 bc 8e 30 21 bd
       -0.004335349 0.021663802 -0.022575822 -0.039352946
0001c0 b4 31 0a bd fc 58 ca 3c ea 8c 8e 3c 94 4b cf 3c
       -0.033738807 0.024700634 0.017401177 0.025304593
0001d0 0e 01 00 bd 57 4d b9 3c 64 3c f5 bc e4 ec 5e 3c
       -0.031251006 0.022619886 -0.029936023 0.013606284
0001e0 9e ec 0d 3b bc 86 81 3c 57 2a 12 3c 12 43 62 bc
       0.0021655927 0.015811317 0.008921227 -0.013809936
0001f0 bc 14 ba bc db 39 bc bc 26 a0 df 3c ad 2e 0e bd
       -0.022714965 -0.022976806 0.027298044 -0.034712482
000200 37 ce 12 bd b1 a9 6d 3c 61 2b 1d 3b 02 bc 0c 3d
       -0.035841193 0.01450579 0.0023982155 0.034358986
000210 5c e6 11 3c 65 8b dc bc 6a 30 21 bd 6a b3 0b 3d
       0.00890502 -0.026921937 -0.039352812 0.03410665
000220 79 78 bc bb e8 84 ec 3b b5 22 f8 3c 07 80 07 3d
       -0.005751666 0.007217992 0.030289987 0.03308108
000230 c1 64 45 bb 88 05 77 3c 91 08 52 3c de 84 b9 3b
       -0.0030119868 0.015077002 0.012819425 0.005661591
000240 7e 2f 3a bd 94 fa 41 3c 3c 07 ff bc 59 b3 00 3c
       -0.04545545 0.011839528 -0.03113138 0.00785526
000250 79 d0 13 3c bf 39 9a bd 9b 09 d5 bc 2f b0 1d 3d
       0.009021872 -0.075305454 -0.026005557 0.0384981
000260 2c b5 57 bd 92 59 d7 bb 93 55 e5 3c e5 82 0a 3d
       -0.052663013 -0.006571957 0.027994907 0.033816237
000270 25 61 6b bc 01 9f b6 3c c7 62 d3 3a bb 12 17 3c
       -0.014366423 0.022292616 0.001612746 0.009220774
000280 ba 65 93 3a d7 ac a7 bc 5d 71 9f 3c 07 62 0f bd
       0.0011245527 -0.020468159 0.019463236 -0.035005596
000290 99 16 2a 3c e6 b5 d7 3b c7 5d 9d bc a3 a4 1d bd
       0.010381364 0.0065829633 -0.019209756 -0.038487088
0002a0 01 fa b0 bc 7e 39 1c 3b b8 44 14 3c 6b d0 95 bb
       -0.021603586 0.002383798 0.009049587 -0.0045719645
0002b0 b0 cd a4 ba 3f a6 1e bc cb a6 4d 3b 25 03 68 bc
       -0.0012573507 -0.009683191 0.0031379934 -0.014160906
0002c0 a0 4a 90 bd a7 d1 c4 bc 40 2f 48 bd 94 c2 a8 3d
       -0.070454836 -0.024025751 -0.048873186 0.08240238
0002d0 b9 c5 07 3c c4 8d a5 3c e6 ab 2e bc e6 54 a6 ba
       0.008286887 0.0202092 -0.010661101 -0.0012690097
0002e0 96 2f cf bc a3 89 09 3d 8f 89 2f bd 13 21 8b bc
       -0.025291245 0.033578526 -0.042855795 -0.016983544
0002f0 e0 12 09 bd 3a 60 e2 3b 80 15 13 bc 6f 50 3b b9
       -0.033465266 0.0069084438 -0.008977294 -0.00017863674
000300 f2 8f 91 3a 16 90 fb 3a 3b 03 1d bd 8d 76 e6 3c
       0.0011105521 0.0019192721 -0.03833316 0.028132701
000310 48 a7 d5 3c ed ae 31 bd 51 52 f0 3c 2d 4d b3 3d
       0.026080742 -0.043379713 0.029336127 0.087549545
000320 b9 7f 13 3d 78 76 a5 3d 5d b0 9c 3d 97 67 d6 3c
       0.036010478 0.08079237 0.07650826 0.026172442
000330 f6 3f 87 3a d8 26 76 bc bf a0 b0 bc 2f 22 33 bd
       0.0010318744 -0.0150239095 -0.021561025 -0.043733772
000340 6c 66 5d bc 84 38 d4 3c 09 52 61 3c 9d ab 13 3d
       -0.013513189 0.025905855 0.013752469 0.036052335
000350 d2 18 18 bd d6 1c ea 3c 02 ac f3 bc 4a 60 18 3b
       -0.037133045 0.028578203 -0.029745106 0.0023250752
000360 0a 8c de 3c 14 c2 15 3d 8e 91 04 3d a5 e5 04 bd
       0.027166385 0.03656204 0.032365374 -0.03244557
000370 87 9c 1b bc 63 ef ee 3c 6d 78 7c bb 66 83 be 3a
       -0.009497768 0.029166883 -0.0038523928 0.0014535009
000380 5a 48 f2 ba 6f 20 a0 bc 05 50 32 bc 6b 8c cd bc
       -0.0018484697 -0.019546716 -0.010883336 -0.02509137
000390 0e a7 06 3d 10 cb 01 bc f6 a6 9c 3c 3c ce a0 bb
       0.03287416 -0.007921949 0.019122582 -0.0049073976
0003a0 58 28 ed 3b 21 67 32 bc 20 4e 85 3c 1a 79 4b 3c
       0.0072374754 -0.010888846 0.016272604 0.01241901
0003b0 84 5a 8c 3c d2 65 87 3d 9e c2 a9 3d c5 49 85 3d
       0.017133005 0.066112176 0.082890734 0.06508211
0003c0 94 a4 ba 3d 3b 37 da 3c 58 c1 11 3d 26 e6 1b bd
       0.09113422 0.026637664 0.035584778 -0.038061284
0003d0 d4 47 f0 3c 50 86 06 bd 82 2f 7d bc dd 0c a4 3c
       0.029331125 -0.032842934 -0.015453221 0.020025665
0003e0 5c 2d 36 3d 32 00 7e ba b5 4a 9d bc 33 a1 3f 3c
       0.04447685 -0.000968936 -0.019200662 0.011696148
0003f0 14 5b d7 3b 3a ec c7 3c 4f 3b 10 3d ba c6 74 bc
       0.0065721367 0.024404634 0.03521281 -0.014939958

model.2.bias f4 [64]
000000 9b 3c 94 bc 81 ec 1f bd 8f 72 15 bd ac 5c d8 bc
       -0.018095305 -0.039043907 -0.036486205 -0.026411377
000010 4a 53 1c bc 72 0e 68 3c 31 6f 28 3d 9a a1 a7 3b
       -0.009541342 0.0141636 0.041121665 0.0051157
000020 81 a2 01 3d 6e d7 63 bc d4 b3 f7 bb 55 7b cb bc
       0.031649116 -0.013906343 -0.007559279 -0.024839083
000030 c3 23 bf b9 bc 2e e3 3c 3c 4e 31 bb 6e 96 7e 3c
       -0.00036457003 0.027732246 -0.0027054688 0.015538795
000040 c7 e4 be 3c 02 a6 e8 bb 55 da 14 bc aa 71 50 3c
       0.023302449 -0.007099868 -0.009085258 0.012722412
000050 59 a5 10 3d 24 c6 ae bc ac 77 8c bc bf 1d 67 bb
       0.035313938 -0.021334715 -0.017146908 -0.0035265533
000060 8f d7 cc 3c fe a4 83 bc 47 81 0c bc 28 01 06 3d
       0.02500513 -0.016069885 -0.008575744 0.032715946
000070 5d bd b3 3b de d9 03 3d 12 b1 ba 3c 8b 58 42 3c
       0.0054852203 0.032190196 0.022789512 0.011861931
000080 44 de 28 3c e1 90 28 bd 16 35 2c 3d 25 a2 2a 3d
       0.0103068985 -0.041153792 0.042042814 0.04165854
000090 24 a5 9b 3c 9f f7 10 bd 35 44 7b 3a c0 ec e6 bb
       0.018999644 -0.0353924 0.0009585054 -0.007047266
0000a0 32 92 14 bd 0c 85 6d 3d a6 0c 70 bc 96 b6 04 3c
       -0.036272235 0.05798821 -0.014651453 0.0081001725
0000b0 f8 9a dd 3c bb d6 d9 3b f0 d5 bc 3c c6 43 0d 3d
       0.027051434 0.0066479123 0.023051232 0.034488462
0000c0 26 62 5c bc f8 24 34 3d 09 9e 85 bc c0 72 e9 bc
       -0.013451135 0.04398057 -0.016310709 -0.0284971
0000d0 24 68 60 bc 90 1a 54 bb f4 38 8c bc 6a 54 22 bd
       -0.013696704 -0.0032364465 -0.017117001 -0.039631285
0000e0 fc f1 ac 3c 45 7f d9 bb 2b 39 62 3b 7f 7b 88 3c
       0.02111148 -0.006637486 0.0034518938 0.01666045
0000f0 75 41 11 bd e1 ad 71 bb b1 ab 17 bd 97 99 27 bc
       -0.035462815 -0.0036877322 -0.037028972 -0.01022949

model.5.weight f4 [3, 64, 3, 3]
000000 29 57 cd 3c c0 3f 41 bc ab b7 63 bc 82 34 01 bd
       0.025065975 -0.011794984 -0.01389877 -0.031544216
000010 1f 6c 05 bd 43 93 a8 3c 22 ad 20 3d 5a 58 68 3c
       -0.032573815 0.020578032 0.039227612 0.014181221
000020 c0 49 b5 3c 26 7e d7 3c ff fb 11 bd d2 7b 15 3d
       0.022129893 0.02630527 -0.035640713 0.036495037
000030 f6 00 27 3d cd 1d cc bb eb a6 73 3c 6f a2 84 3c
       0.0407724 -0.0062291385 0.014871339 0.016190736
000040 43 98 ce bc 39 ef 93 bc 1f 30 99 3c 4f 23 88 3c
       -0.025219088 -0.018058406 0.018699704 0.016618399
000050 bf c3 ce bc 34 bf 3c 3d ed d7 09 3c 84 3b c4 bb
       -0.025239823 0.046080783 0.008413297 -0.00598854
000060 d6 e0 a3 bc 53 dd c4 3b cb 14 a9 bc 7d e9 c5 bc
       -0.020004671 0.006007829 -0.020639798 -0.024159187
000070 ed 70 c8 bc 05 ab cf 3c 97 1e 02 bd b5 f3 ba 3c
       -0.02446791 0.025350103 -0.031767454 0.022821287
000080 41 f1 a1 3c 4f 3c f2 3c 39 eb 01 3d a3 38 78 bc
       0.01976836 0.029569773 0.031718466 -0.015150222
000090 0c 09 39 3d ff f3 58 3c 4b c5 36 3c c2 c3 df 3b
       0.045174643 0.013241767 0.011155437 0.006828756
0000a0 15 65 84 ba 8a 28 a8 bc 91 07 4b bc a8 d2 9a 3b
       -0.0010100926 -0.020527143 -0.012391941 0.004724819
0000b0 a1 d6 12 3d 90 9f dc 3b 1f 34 02 bc 78 17 ee bb
       0.035849217 0.0067328885 -0.007946997 -0.0072659813
0000c0 ba 81 97 3c c3 3f 1b 3b 1f 09 eb 3c 70 89 aa bc
       0.018494476 0.0023689128 0.028690873 -0.020817488
0000d0 d0 7a 15 bd cc c0 88 3b ce e4 01 bc 52 f2 11 bd
       -0.036494076 0.004173374 -0.007928086 -0.035631485
0000e0 8e 92 89 3b d2 ac 7d 3c 93 97 30 3c 03 ed cb 3c
       0.004198379 0.015483098 0.010778326 0.02489329
0000f0 1f 14 18 3d f2 46 95 3c 09 8e 2d 3d c3 8b b3 bc
       0.037128564 0.018222306 0.042371783 -0.02191723
000100 45 f6 85 bb 6d f6 be 3a 79 1e 39 bd df af 65 bd
       -0.0040881955 0.001456929 -0.045195077 -0.056075927
000110 61 53 b4 3c 33 0f a0 bc 17 01 38 bd f6 86 5c bc
       0.022012414 -0.019538498 -0.044922914 -0.013459912
000120 cb bb 06 3c 66 b9 ec 3c 13 17 f8 3c b5 30 79 bc
       0.008223484 0.028896999 0.03028444 -0.015209367
000130 bd e5 42 3d b4 6b ca 3c 35 52 01 bc 38 e0 01 bd
       0.047582377 0.02470956 -0.007893135 -0.031707972
000140 9c a7 d9 3c ea 04 a7 bc 23 47 22 3d 83 27 12 bc
       0.02656918 -0.020388085 0.039618623 -0.008920553
000150 50 08 95 bb 09 65 0a ba 32 58 a3 bb cf 4e 13 3d
       -0.00454811 -0.00052793376 -0.004984879 0.03596383
000160 b9 c3 61 3c 54 68 61 3c 4b 04 8c 3c c1 d5 9b bc
       0.013779574 0.013757784 0.01709189 -0.019022824
000170 f2 c6 89 bc d8 89 21 3d e8 d0 f5 bc 56 86 fe 3c
       -0.016818497 0.0394381 -0.03000684 0.031069916
000180 3f bd 03 3d e7 f6 6d bc b1 af 6e bc 40 38 1e bc
       0.0321629 -0.014524198 -0.014568255 -0.009656966
000190 5f 30 04 bd fe 14 17 bd ca 23 40 3d 00 f3 80 bb
       -0.032272693 -0.036885254 0.04690913 -0.003935218
0001a0 b3 e1 16 3c 5f f0 13 3a 8f ed 0b 3d eb 17 f8 3c
       0.009209084 0.0005643423 0.0341621 0.030284842
0001b0 fb 8d f5 bc 01 f8 cd 3c be a3 b1 bc 92 96 5e 3b
       -0.029974928 0.025142672 -0.021684524 0.0033964259
0001c0 ce a8 0a bd 06 0a a5 3c 05 f9 9e 3c d3 6c b1 3c
       -0.03385239 0.020146381 0.019405851 0.021658337
0001d0 18 61 74 bc 20 fb 0f 3d 7f db 1b 3d a6 29 9d bc
       -0.014915727 0.0351516 0.038051125 -0.019184899
0001e0 68 92 a9 3c a6 9e e8 b9 9f a7 46 3d 57 fc d5 3c
       0.020699695 -0.0004436869 0.0484997 0.026121302
0001f0 ce 39 f8 bc 47 0e a7 bc 69 1a 39 bc 9d 01 b2 3b
       -0.030301 -0.02039255 -0.011297801 0.005432321
000200 97 45 25 3d c3 37 3d 3d df 10 f7 bc 0b e7 3c 3c
       0.04034957 0.046195757 -0.030159412 0.011529694
000210 d5 9a c2 bb f4 20 90 3c 0f 61 3e 3c 50 64 00 3d
       -0.0059388676 0.017593838 0.01161982 0.031345665
000220 67 9c e9 bc 76 3b 32 3d e1 32 a4 bc ac ac d0 bc
       -0.028516961 0.043513738 -0.020043792 -0.025472961
000230 09 d0 e9 3c 26 b6 f5 3b b8 12 46 3a a7 6b c3 ba
       0.028541582 0.0074985204 0.000755589 -0.0014909402
000240 ad 23 8b 3a cb 31 11 bd 9a 86 62 bc f4 11 05 3c
       0.0010615491 -0.035447877 -0.013826037 0.008121956
000250 28 36 31 bd 77 25 d9 bb 7a 9b 12 3d c8 97 23 bd
       -0.043264538 -0.0066267806 0.035792805 -0.03993967
000260 cc 51 b3 3b d2 11 02 3c aa 4e 1f 3d a2 0c 2f bb
       0.0054723974 0.007938819 0.03889338 -0.002671041
000270 29 c1 74 3b c1 a9 c4 bc 85 cb d0 bc 76 fc 2c bc
       0.0037346578 -0.024006726 -0.02548767 -0.010558238
000280 cf ae 95 bd a8 1d 0b bd f2 5b 39 bc 65 8a 64 3c
       -0.07308733 -0.03396383 -0.011313425 0.013949011
000290 b9 d7 0f 3d d2 20 fa ba 42 08 8b bc d7 f4 af 3c
       0.03511784 -0.0019083268 -0.016971711 0.021479053
0002a0 fb 95 f6 bc b7 82 ed 3c ae 3d 06 bc 50 2c d7 3b
       -0.030100813 0.028992994 -0.0081934165 0.0065665618
0002b0 fb 58 fa 3c 8c ab a2 3c e3 35 fa bc 67 ec d6 3c
       0.030560007 0.01985719 -0.030543273 0.026235772
0002c0 cb e1 a9 bc 32 ef dd 3c 30 ee 08 3d d6 08 07 3d
       -0.02073755 0.027091596 0.03343028 0.03296741
0002d0 1d 6c 2b 3d 6f 4b 21 3d 07 f2 b7 bc 49 8d ce bc
       0.04185115 0.03937858 -0.022454275 -0.025213854
0002e0 93 d1 27 3d e8 83 82 ba c7 de e1 3c 7b a9 c3 bc
       0.04097135 -0.0009957524 0.027572049 -0.023884526
0002f0 d7 11 aa bb a1 a3 09 bd 93 e3 c6 3c d6 b6 62 3c
       -0.005190115 -0.033603314 0.024278438 0.013837537
000300 4d 3b ae ba 38 99 82 bc 39 f4 19 bc 45 55 fa bc
       -0.001329282 -0.015942201 -0.009396606 -0.030558238
000310 e7 85 66 bc 8c 7e f6 ba f2 7b 54 ba 90 a3 20 3c
       -0.014070011 -0.0018806024 -0.00081056275 0.009804621
000320 5a f8 25 3b 2a b6 a4 bc 84 6f 12 3d 42 79 1f bd
       0.002532503 -0.020106394 0.03575088 -0.038934
000330 c8 fb 90 3c 7b d7 52 3d d7 37 11 3d a8 1a c3 3c
       0.017698184 0.05147503 0.035453644 0.023816422
000340 73 89 a9 bc a7 8a e3 3c c0 1a c1 3c 7a 66 a9 bc
       -0.020695424 0.027776076 0.023572326 -0.020678747
000350 04 f2 06 3d fa 5d 2e 3c 35 cd 28 3d 77 55 ff 3c
       0.032945648 0.010642523 0.041211326 0.031168683
000360 af 7c d3 3c 06 8c 63 3c f1 ef b6 bb 3d 0e cd bc
       0.02581629 0.013888365 -0.0055828025 -0.025031203
000370 c6 74 fd 3b 02 c7 1a 3c 6b 2b ee bc d2 6e ef bb
       0.0077348677 0.009446861 -0.029073438 -0.007306912
000380 93 3a 8e bc 76 8d 23 bd 3e 4b 0e bc f7 aa 74 ba
       -0.017361915 -0.03992983 -0.008684931 -0.0009333337
000390 4a 23 e6 bb 08 60 8b bc 10 77 03 3d 93 d6 0c bc
       -0.0070232498 -0.017013565 0.03209597 -0.00859608
0003a0 31 fc 1a 3c 35 27 25 3b 63 2f fb 3c e1 5a f8 bc
       0.009459541 0.0025200371 0.030662244 -0.030316772
0003b0 d0 69 91 3b 37 02 fe 3c a1 40 e3 bc b7 67 3a 3d
       0.0044376627 0.031006915 -0.027740778 0.045509066
0003c0 7f 8f 7f 3c 01 26 2a 3d 11 ad 04 bd 31 5d 07 bd
       0.015598177 0.04154015 -0.03239161 -0.03304786
0003d0 fc a0 18 3d 92 c3 80 3c 3d 72 06 bd de cb 1b 3d
       0.0372629 0.015718255 -0.03282379 0.03803622
0003e0 fc 0f 02 ba 50 5c ce bc 6b 18 b1 bc 8d f1 75 3c
       -0.00049614883 -0.025190502 -0.021618089 0.0150112035
0003f0 cc d5 03 3d b1 bf b3 3c c2 f2 4b 3c 62 11 fe 3c
       0.032186314 0.021941992 0.012448015 0.031014148

model.5.bias f4 [3]
000000 5b e6 12 3d ce 04 57 bc e3 be 97 bc
       0.035864215 -0.013123704 -0.018523639
