training/models/upscaler_model_2x_w_500_h_500_epoch_1_loss_0.0019.pth (torch, 177805 bytes, 6 tensors)

model.0.weight f4 [64, 3, 5, 5]
000000 03 82 44 3d f8 4a 2a 3d 42 ec 85 3d 79 70 5b bd
       0.04797555 0.041575402 0.06539203 -0.05357406
000010 f9 10 19 bd b5 df 20 bb 4e 01 9d 3d 5b 40 96 3d
       -0.037369702 -0.0024547402 0.076662645 0.073364936
000020 6b 9d 69 3b 98 c0 db 3d bb 31 c6 3d 58 fd 87 3d
       0.0035646807 0.10730094 0.09677454 0.06640118
000030 48 14 52 3d 1e 69 dc bd e1 f2 c2 bd 22 71 b7 3c
       0.051288873 -0.10762237 -0.09518982 0.022392813
000040 65 39 ab bd 7d 09 c4 3d 16 27 80 3d 26 a8 04 3d
       -0.083605565 0.09572122 0.06257455 0.03238692
000050 e0 09 84 3c 5b 23 99 3d 89 00 8a 3d cf e8 16 3d
       0.01611799 0.07477447 0.06738383 0.036843117
000060 a2 12 8a 3d b2 40 de bd 72 58 ed bd 3b ac 14 3d
       0.06741835 -0.108521834 -0.11589135 0.036297064
000070 05 7e ab bd 11 78 b3 bd c0 cf b1 3d 0e bf 9f 3b
       -0.08373646 -0.08763135 0.08682203 0.0048750704
000080 8a a6 a2 bd 2c f2 5e 3c d0 fe 6f bd 16 30 b4 3d
       -0.07941921 0.013607543 -0.058592618 0.08798234
000090 a5 5f 7d 3b 21 b9 c7 3c 5f c2 f0 bd eb 03 6c 3d
       0.0038661745 0.024380269 -0.11755823 0.057620924
0000a0 62 96 f7 bc 76 14 9d 3d b4 92 a8 bd 50 90 34 3d
       -0.030223075 0.07669918 -0.082311064 0.04408294
0000b0 36 57 88 bc 7d da af 3b c2 db 93 bd 19 e3 b2 bd
       -0.016643148 0.005366622 -0.0721965 -0.08734722
0000c0 05 ef db bc 82 fa e0 3c b8 c5 8c 3c 1f c3 a9 3d
       -0.026847372 0.027463201 0.017184123 0.082891695
0000d0 cb 46 81 3b cf 08 ca bd c7 bd 30 bd 6d 56 7b bc
       0.0039452068 -0.09864961 -0.043149736 -0.01534043
0000e0 98 9e 2a 3d a8 ab 35 bd 60 15 e2 3d 52 90 38 3d
       0.041655153 -0.044353157 0.11039233 0.04505951
0000f0 40 f0 b4 3d 76 df e7 3d a2 d6 99 3d 1b b9 77 3d
       0.088348866 0.11321919 0.07511641 0.060479265
000100 1e f5 d0 3d 42 01 e1 bd d4 f2 a5 3a ee 74 61 3c
       0.102030024 -0.10986568 0.0012660869 0.013760788
000110 7b ca bc bd 0f f1 d3 bd dd 24 9a 3b 14 a7 ae 3c
       -0.092183076 -0.10348713 0.0047041015 0.021319903
000120 4b 83 89 bc 92 b9 01 3d d5 bb 49 3d 2a 88 9c 3d
       -0.016786238 0.031671114 0.049251396 0.07643159
000130 84 7c a1 bd 1a 1c 1f bd 32 aa 27 3d 63 5b a9 bd
       -0.078850776 -0.03884516 0.040933795 -0.08269384
000140 48 02 9b 3c 5c 25 52 3d 81 46 ad 3d 2e d1 83 3d
       0.018921986 0.05130516 0.08460713 0.06436382
000150 61 1c 14 3d 7a 35 d3 3d 1f 09 b1 3d c9 b5 f0 3d
       0.036159877 0.10312934 0.08644318 0.11753423
000160 92 cf f5 3c 4f af 11 bc 0a 38 5f 3d 8b 8b e0 3d
       0.030006204 -0.0088918945 0.054496802 0.10964116
000170 db 8e 1e bc 68 b3 98 bd e9 cb 0d bd a1 f2 af 3c
       -0.009677614 -0.07456094 -0.034618292 0.021478
000180 95 f0 d1 bc d8 54 87 bd ab d5 d4 3c 72 3d a5 bc
       -0.025627414 -0.066079795 0.025980791 -0.020170901
000190 60 b6 ac bd af 8d 7e bd c2 11 c2 bd 40 49 7c bc
       -0.08433223 -0.06214684 -0.09476043 -0.015398324
0001a0 47 f3 59 bd 03 35 05 3d fd a9 e0 3d 91 9b 88 3d
       -0.053210523 0.03252126 0.10969923 0.06670297
0001b0 d1 df e3 bc ef a0 a1 bc a5 dc 78 3c 63 22 69 bd
       -0.027816685 -0.01973006 0.0151893245 -0.05691756
0001c0 31 49 9e 3d 38 23 16 3d 36 da 63 bd 34 cc b3 3d
       0.07728804 0.03665468 -0.055628024 0.08779183
0001d0 45 16 f5 3d a8 c0 0d bd 6b d9 c6 3d 08 9c c2 bd
       0.11967138 -0.03460756 0.09709438 -0.09502417
0001e0 4c 8e 0e 3c e8 1a c9 3d 6c b9 88 3d 2f bc 80 bb
       0.008700918 0.09819585 0.066759914 -0.003928683
0001f0 0f 97 3e 3d 79 6f 5c 3c a9 9c b3 3c 49 f9 ec 3d
       0.04653078 0.0134543115 0.021925287 0.11570985
000200 a0 bc 28 3d 0a c2 61 3d c5 1b 26 bd a7 2f 83 bd
       0.04119551 0.05511669 -0.040553827 -0.06405573
000210 2f 67 a8 3d 19 41 4c 3c 28 b7 21 bd 18 0b 56 bd
       0.08222806 0.012466692 -0.039481312 -0.052256674
000220 53 ea e6 3d b2 99 32 bd 03 a8 c3 bd 18 b1 88 bd
       0.112751625 -0.043603607 -0.0955353 -0.06674403
000230 c8 67 73 3d 8d 2b e5 3d dd 9d 64 bc 4f 2a ce bd
       0.059425145 0.11189947 -0.013953653 -0.100666635
000240 c3 4b 12 bc 8c 1d f9 bc 4d dd d0 bc 7f 74 0d 3d
       -0.008929196 -0.030409597 -0.02549615 0.034534927
000250 d5 95 0e 3c 26 b6 a5 3d 68 08 27 bd d2 f5 85 3d
       0.008702715 0.08091383 -0.0407795 0.06541027
000260 9f b2 a6 bd ab c1 4f ba c7 1d ed bd cf 2d 2e bb
       -0.08139538 -0.0007925282 -0.11577945 -0.0026577597
000270 f1 c3 af 3c 64 75 c0 3d 1f 02 b7 bd 3a ec b0 bc
       0.021455737 0.093973905 -0.089359514 -0.021597017
000280 86 2d ba bd 2c ce 2d bd 16 9c 5a 3d 1d 8b 3f 3d
       -0.09090714 -0.04243295 0.05337151 0.04676353
000290 57 0b 39 3d 0d 6d a0 bd 00 1a ba 3d 2d 22 86 3d
       0.04517683 -0.078333 0.0908699 0.06549487
0002a0 fb 8e 8e bd 80 61 e8 bd b0 c1 bd 3d d3 29 a3 bd
       -0.06960865 -0.11346722 0.092654586 -0.07966962
0002b0 87 82 87 3d ab b3 80 bd af 21 b9 3d 90 78 b7 3d
       0.06616693 -0.06284269 0.09039628 0.08958542
0002c0 0c 5f 08 3d 6a 72 92 3d fd 79 2d 3c ed 79 63 3d
       0.03329377 0.07150729 0.010588166 0.0555362
0002d0 ba 59 0c bd 56 e0 c0 3d a0 5c b2 bb 2d bb 83 bd
       -0.034265257 0.09417789 -0.0054431707 -0.06432185
0002e0 d6 9b b2 bc 57 42 38 bd 36 c5 88 bc 7a 3f 05 bd
       -0.021802824 -0.04498514 -0.0166956 -0.03253124
0002f0 e5 e1 73 bc 72 ec b3 3d f9 8a b7 3d 8a 68 da 3d
       -0.0148854 0.08785333 0.08962054 0.106644705
000300 51 2b b2 3d 05 ac 57 bd 35 57 bf 3d ab b0 8e 3d
       0.08699668 -0.052654285 0.09342805 0.069672905
000310 e2 4a 54 3b d3 0c a8 3d c5 f2 e1 bd 62 72 d7 3d
       0.0032393266 0.08205571 -0.11032633 0.10519864
000320 b2 bf 9a 3d 7c 6b 61 3d 7e c6 b9 3d 06 8f dd 3d
       0.07556094 0.055034146 0.090710625 0.10818295
000330 4a 11 e0 3c aa 6d 4b bd 60 dc 9e 3d 0a c7 70 bd
       0.027351994 -0.04966513 0.07756877 -0.05878357
000340 f5 b8 60 bd 52 45 f2 3c fe 45 cf bd f3 a8 cf bd
       -0.05486389 0.02957407 -0.10120772 -0.101396464
000350 7a 81 d2 bd 81 21 8b bd 71 18 38 bd c0 b0 ff 3c
       -0.10278602 -0.067935 -0.044945184 0.03121221
000360 45 e8 59 bc f9 6d 31 3c 03 58 ff 3c 4f 30 d9 3d
       -0.013300006 0.010829442 0.031169897 0.10604917
000370 c6 2f b3 bb 0b 44 b0 3d 35 9f 9f bb 3e bd a5 bd
       -0.0054683415 0.08606728 -0.004871274 -0.08092736
000380 0c 66 c0 bd 18 7b 91 bd 42 a9 b3 bd 52 94 0d 3b
       -0.09394464 -0.071035564 -0.08772518 0.0021603298
000390 a9 78 31 bd 21 31 4b 3d d4 d6 65 3d ba b9 ce 3d
       -0.04332796 0.0496074 0.05611308 0.10094018
0003a0 6e ba a7 bd 66 65 5b 3c 7e 68 f0 bc 35 8b 88 3d
       -0.081898555 0.0133908745 -0.0293467 0.06667177
0003b0 9d 94 56 3d ec 99 90 3b 2c 59 56 3d a8 b9 d6 3d
       0.052387822 0.00441288 0.052331135 0.1048463
0003c0 a1 42 ad 3c 5f c8 43 bc 8f 60 8b 3c 85 de aa 3c
       0.021149935 -0.011949628 0.017013816 0.020858059
0003d0 7b 2b ac 3d 9c 02 b3 3c 90 2e 43 bd f1 06 d2 3d
       0.08406731 0.02185183 -0.047651827 0.1025523
0003e0 cf 32 2c 3d c6 e5 bb bd a4 fc 85 3d 40 48 a6 3c
       0.042040642 -0.09174685 0.06542328 0.020298123
0003f0 b1 7a 8a bd b6 13 15 bd d2 5f b5 3c bd 64 70 3d
       -0.06761683 -0.03639575 0.022140417 0.05868982

model.0.bias f4 [64]
000000 a7 a1 95 3c 8c 38 d4 3d 02 7f dc bd 69 5c bc bd
       0.018265558 0.10362348 -0.10766412 -0.09197313
000010 b2 25 49 3c 0e dd e5 3c 63 e7 b5 3d 68 bc da 3d
       0.012277054 0.028059509 0.08882024 0.10680467
000020 7c 30 70 bd 74 e2 8a 3d a6 20 a0 bd 32 52 e7 3b
       -0.05863999 0.06781474 -0.07818727 0.007059359
000030 ef 48 7c 3d e2 17 cc 3d 5f 59 e0 3d 06 6f ce 3d
       0.061592992 0.09965493 0.10954546 0.1007977
000040 83 46 f9 bc b9 dc c4 3d 7c 22 d2 3d dd e3 cd 39
       -0.03042913 0.09612412 0.102604836 0.00039270418
000050 ba 98 dc 3d 29 44 7a bd c8 93 94 3d 35 d2 cd bd
       0.10771318 -0.06110016 0.072547495 -0.100498594
000060 2c 72 ed bd 1c 80 6d bc 0a 27 8d 3d 10 e7 04 bd
       -0.11594042 -0.014495876 0.06892212 -0.03244692
000070 f1 be a8 bc d5 f8 ce 3d b2 bb 53 bd ac 31 28 bd
       -0.02059886 0.10106055 -0.051692672 -0.041062996
000080 f2 bb d0 3d f2 56 90 bc 40 09 73 bd 6d 04 cd bb
       0.10192098 -0.017619584 -0.059334993 -0.006256631
000090 5c 24 7e bd b0 b5 ab bc 75 4d 33 3d ab 8c 91 bd
       -0.062046394 -0.020960659 0.04377504 -0.071069084
0000a0 39 f0 79 bd eb 83 90 3c 6e f2 90 3d b4 ad da 3c
       -0.06102011 0.017641028 0.0707749 0.026694156
0000b0 56 36 6b bd 57 82 ca 3b fe d2 cd 3c f8 a6 ac 3d
       -0.057424866 0.0061800885 0.025125023 0.08430284
0000c0 9d 16 77 3d 95 2a 8e 3d eb 19 80 3d 04 05 ee 3c
       0.0603243 0.06941716 0.062549435 0.029055126
0000d0 27 5e 11 bd ad 1b b2 3d 3c a8 34 bd ea e7 32 3d
       -0.03549018 0.08696685 -0.044105753 0.0436782
0000e0 42 b3 c4 3d 78 05 c3 bd c2 d6 6a 3c 67 66 a8 bd
       0.09604503 -0.095225275 0.014333429 -0.08222657
0000f0 4a 38 58 bd 7a 96 6c 3c e9 34 e6 bb 66 05 b4 3d
       -0.052788056 0.014440173 -0.0070253504 0.08790092

model.2.weight f4 [64, 64, 3, 3]
000000 91 04 0f 3d 7a 85 b3 bc d9 8f 79 3c 84 f0 8a 39
       0.034916464 -0.021914233 0.01523205 0.0002650061
000010 6e f2 a1 3c 86 dc 88 3c 47 80 2e 3d a8 11 1e 3d
       0.01976892 0.016706716 0.042602804 0.038591057
000020 cc 37 33 bc 52 24 13 3d 07 ce bd 3b ea 9e c3 3c
       -0.010938596 0.03592331 0.0057923826 0.023879487
000030 73 45 83 bc a3 ef 07 bd 3a 8b 6d 3c 66 de 09 3d
       -0.016024327 -0.03318752 0.014498526 0.03365936
000040 bc df 52 3c bd 80 25 bc 1c 24 69 3c ac 09 30 3d
       0.012870725 -0.010101494 0.014229801 0.042977974
000050 c5 7c fd 3c 51 66 a1 bc 2c 2b ef bc 7a f7 d7 3c
       0.030943284 -0.019702109 -0.02919539 0.026363123
000060 de 28 84 bc 26 3d e3 bb 4a ca a1 bc 77 fe 2a bb
       -0.016132768 -0.0069347797 -0.01974978 -0.0026091614
000070 83 79 2f 3d dd bc 99 3c ba e5 3b 3d 77 b0 08 3d
       0.042840492 0.018766815 0.04587338 0.033371415
000080 bf 0a 85 3c a5 19 0a bc 52 fb 52 bc b2 32 de bc
       0.016240476 -0.008428966 -0.012877302 -0.027123783
000090 c7 86 50 bc 3f ed 05 bc 1c 58 7f 3c 40 3f e7 3c
       -0.012727446 -0.00817424 0.015584972 0.028228402
0000a0 bf 6c cd 3b f0 be 1e 3d 32 f0 d0 3c 3a 56 02 bd
       0.006269067 0.03875631 0.025505159 -0.031820513
0000b0 1d 35 de 3c d1 f4 0f 3d 5b a2 c4 3c fa 64 87 bc
       0.027124936 0.035145584 0.024003198 -0.016527642
0000c0 5b a4 cc 3c 8c e8 32 3d 0c 2b 0a 3c 5b c9 12 3c
       0.024980715 0.043678805 0.008433115 0.00895914
0000d0 d4 7a d7 3c be 33 b7 3c 4c 7c d1 bc 11 14 89 3c
       0.026303686 0.02236354 -0.025571965 0.016733201
0000e0 08 5a 1a bd 97 ce 82 bc 5a 21 06 3d f8 8a e3 bc
       -0.037683517 -0.01596765 0.03274665 -0.027776226
0000f0 ac d7 f7 3a eb e8 9c 3c 51 0f 21 3c cc 26 51 3b
       0.001890888 0.019154033 0.009830312 0.0031913994
000100 70 cb 47 bb d9 f1 98 3c b4 5d 08 bd 46 9a 9a 3c
       -0.0030486248 0.01867001 -0.033292487 0.018872391
000110 1f 67 00 bd a0 70 eb bc 47 5a f3 bb 3b 31 8e 3c
       -0.031348344 -0.028740227 -0.0074265334 0.01735746
000120 bb d7 2e bd c1 a2 8b 3d b8 82 d0 3c ec 9d 99 3c
       -0.042686205 0.06818152 0.025452957 0.01875206
000130 61 bb 61 bb 8c 2d 0c 3d 2f 9f ce ba 41 22 84 3b
       -0.0034443962 0.034223124 -0.0015763993 0.0040324037
000140 2d 7f ff 3c d1 18 87 3c 44 f9 8b bc 2c 40 66 3c
       0.031188572 0.016491326 -0.017086633 0.014053386
000150 70 d8 36 3d 2b ab 67 bc ba 73 3c 3d 7d bc 7a bb
       0.044640005 -0.014139931 0.046008803 -0.003825932
000160 e4 2c e3 bc a6 b8 12 3d c5 f8 dc 3c 31 5f f7 bc
       -0.027731366 0.035820626 0.026974091 -0.030196758
000170 12 c9 c4 bc 5d 71 e1 bc 27 48 90 3c a0 27 0d bb
       -0.024021659 -0.027519876 0.01761253 -0.002153851
000180 56 5c e0 3b 31 87 d0 3c 50 78 ef bc 19 bc 44 3d
       0.006846945 0.02545509 -0.029232174 0.048030946
000190 ed 13 a7 bc 9a 2b d6 3c 81 63 d3 bc e6 d9 e5 bc
       -0.020395244 0.026143838 -0.025804283 -0.028058004
0001a0 06 06 b6 bb d7 0e 97 3c 3c 83 0f 3d bd c8 3e 3d
       -0.0055549173 0.018439693 0.035037264 0.046578158
0001b0 00 5f e1 bc 88 82 6a bd d9 6b 40 3a 9a 40 84 3c
       -0.02751112 -0.05725339 0.00073402893 0.016144086
0001c0 ec fc 04 3d 80 80 c4 3c 63 95 5d bc b7 75 b5 3b
       0.032467768 0.023987055 -0.013524386 0.0055377143
0001d0 b5 ef 37 bc 03 2a 50 bc b9 0c 5f 3c 90 bd 88 bc
       -0.011226584 -0.012705329 0.013613873 -0.016691953
0001e0 34 b2 9f 3c 3e 07 be bc 05 78 77 bc 58 fe 26 bd
       0.019494154 -0.023196813 -0.0151042985 -0.040769905
0001f0 30 72 27 bd 39 a5 0e bc c5 e5 ba 3c b8 f3 ee ba
       -0.040880382 -0.008706384 0.02281464 -0.0018230593
000200 d1 df fe bc 8c 82 fe 3c 7c 8f 92 39 53 cd 29 bb
       -0.031112583 0.031068109 0.00027954194 -0.0025909736
000210 be b5 e1 bc 7c d2 b7 bc a8 32 8a bc 62 97 85 3c
       -0.027552482 -0.022439234 -0.016869858 0.016307537
000220 3a f1 34 3d bd fa 3e 3c ab 0c f4 3c 84 2d 18 bd
       0.044175364 0.01165646 0.029791197 -0.037152782
000230 56 e3 d9 3c 97 12 59 3c f4 e1 3d 3c 4e 2b 2e 3d
       0.02659766 0.013249061 0.011589516 0.042521767
000240 c9 ed d3 3c 27 44 d4 bb 53 44 87 3c b1 88 40 bb
       0.02587022 -0.006477851 0.016512072 -0.002937835
000250 a3 75 fe bc a9 22 4a 3a db 5f 80 3c 85 2c df bc
       -0.031061953 0.0007710853 0.015670707 -0.027242908
000260 c6 a8 13 bd 77 cf 1a bd 37 cf 16 3d 67 38 6c bc
       -0.036049627 -0.03779551 0.03681871 -0.014417744
000270 98 17 c3 bc f7 f2 01 3d ad 20 96 3c d9 45 b9 bc
       -0.023814961 0.03172585 0.018326128 -0.022616314
000280 b6 08 16 bd d5 f4 f0 3c 2e 7c fa 3b 80 dc fe 3b
       -0.0366294 0.02941362 0.007644198 0.0077777505
000290 49 85 00 bd 7f 1d 0a bd 62 72 24 3d 0f d9 2c 3c
       -0.03137711 -0.033719536 0.040148146 0.010549798
0002a0 41 91 ae bc a2 34 7f 3c fd b5 e2 bb 74 94 02 3d
       -0.021309497 0.0155765135 -0.0069186673 0.031879857
0002b0 b3 69 a9 bc d8 20 9f bc c6 17 0b 3d 9f 60 d1 bc
       -0.020680284 -0.01942484 0.03395822 -0.025558768
0002c0 b9 08 80 bc d1 45 c7 3c 07 59 10 3d dd fa e7 bc
       -0.01562916 0.024325283 0.035241153 -0.028317863
0002d0 de 8c 24 bd 0a 5f 12 3d 91 78 bf 3c fa 83 27 3c
       -0.040173404 0.035735168 0.02337292 0.010224337
0002e0 56 9a ff bb 8a 8b 89 bc 0b ab 75 bc 33 ad 4f bc
       -0.0078003807 -0.01679017 -0.014994393 -0.012675571
0002f0 0c 4a 4e 3c 08 35 19 3d 79 d8 7f 3c 31 76 18 3d
       0.012590896 0.03740409 0.015615576 0.03722209
000300 24 72 1a bc 37 3c 9c bb 56 d5 ab bc ff 5d 6c 3b
       -0.009426627 -0.0047679204 -0.02097575 0.0036066768
000310 0c 61 70 bc 4e 3c d5 bb 3f 31 d8 bc f0 69 87 bc
       -0.014671575 -0.006507433 -0.02639067 -0.016530007
000320 d7 1e 89 bb 4b da 3f bc 0f 84 0f bc e9 56 0d 3b
       -0.0041845846 -0.01170976 -0.008759513 0.0021566695
000330 e8 44 58 3a ef 6a 2a bd a7 91 d6 3c fa 7a 1c b9
       0.0008250014 -0.041605886 0.0261925 -0.00014923132
000340 0a ac 19 3d 20 cb b5 bc e1 59 00 bd 41 7c 95 bc
       0.037517585 -0.022191584 -0.031335715 -0.018247725
000350 46 c7 8e bc 41 e4 ae 3c bd 77 0e 3d e6 4e 2a bb
       -0.017429005 0.021349074 0.03478216 -0.0025986969
000360 f9 5a 1c 3d e4 a8 99 3a 50 81 40 3d 83 40 03 3d
       0.038172696 0.0011723307 0.046998322 0.032043945
000370 00 3a 5b 3c d7 cc b9 bb c4 42 e7 39 f3 c6 07 3c
       0.0133805275 -0.0056701708 0.00044109498 0.008287179
000380 17 33 1f bc 65 fb ae 3c d1 f2 e9 3c f7 6d 91 bc
       -0.009716771 0.021360109 0.028558167 -0.01775263
000390 23 86 0f bd 1d 3b 56 3c 9b da 29 3c c1 0e 15 3b
       -0.035040032 0.013075617 0.010367061 0.002274439
0003a0 70 d5 46 bd 53 fc d4 3c 3d 70 2b bd 66 d1 19 3c
       -0.048543394 0.025999224 -0.041855086 0.009388303
0003b0 9e 1a a1 3c 5e 76 a4 bc 8d 9a 97 bc bc 38 e8 bb
       0.019666012 -0.020075973 -0.018506313 -0.0070868414
0003c0 f6 78 48 bc 94 39 8a 3b 65 8b f7 bc ec dc 4b 3d
       -0.012235871 0.0042182896 -0.030217836 0.049771234
0003d0 60 53 df 3c bb 6d 99 3b 77 23 7e 3c f2 ce 37 3c
       0.027261436 0.0046822703 0.015511385 0.011218773
0003e0 7c e9 c2 3c b0 13 36 bc 2b 47 2a bc 16 30 c9 3b
       0.023792975 -0.011113092 -0.010392944 0.0061397655
0003f0 67 3b 10 3d e1 57 61 bc d4 d2 e8 3b 27 4d 8b bc
       0.0352129 -0.013753862 0.007105211 -0.017004563

model.2.bias f4 [64]
000000 96 a5 07 bd 17 4b 19 bd 36 8e a4 3a 1b d6 13 3d
       -0.0331169 -0.037425127 0.0012554589 0.03609286
000010 e5 45 13 bd 15 4b db bc 1d ea 48 3c 6c 8e 12 3d
       -0.03595533 -0.0267692 0.012262848 0.035780355
000020 48 cc 49 3c ab 6c ac 3c ab 50 a3 bb c6 84 0f bd
       0.012316771 0.02104791 -0.0049839816 -0.035038732
000030 a8 86 36 3c b5 6b 91 bb a2 39 c0 3c 4f 26 f1 3c
       0.011140503 -0.0044378885 0.023464981 0.029437212
000040 9c a4 3c bc 26 f7 12 bb 0a 97 7e bc 3c 1f a3 bc
       -0.011513855 -0.0022425144 -0.01553894 -0.019912355
000050 8a c0 de bb 5b 06 f5 b9 76 6e c0 3c 93 f8 1b 3d
       -0.006797855 -0.00046734777 0.023490172 0.038078856
000060 ae 0c e0 bb a1 47 06 bc 25 a9 99 bc 2d 9b 8d bc
       -0.006837449 -0.008195789 -0.018757412 -0.017285908
000070 42 a2 a4 bc a0 5f 2d 3d 91 bf 86 bb ac 2f 8f ba
       -0.020096902 0.042327523 -0.004112192 -0.0010924242
000080 c5 7a 30 bd 7b 13 4e bc 80 38 27 bc 1c 76 58 bb
       -0.043085832 -0.012577887 -0.010206342 -0.0033029383
000090 88 49 85 bc 8f c0 14 3d ff d1 76 3a 6a cd 05 3d
       -0.016270414 0.03631645 0.0009415447 0.0326666
0000a0 40 6c 32 3c 91 db 84 bb 5a c4 92 3c a6 6f 74 3c
       0.010890067 -0.0040544947 0.017915893 0.014919197
0000b0 6b bb cb ba 35 99 f9 bc 6e 78 f7 3c 51 38 88 3b
       -0.0015543526 -0.030468563 0.030208793 0.004157104
0000c0 30 d7 86 3c 3a eb 54 3c 5b a4 37 bd de 84 13 bd
       0.016460031 0.0129955355 -0.044834476 -0.036015384
0000d0 64 41 82 3c 75 f4 35 bd d3 23 8f 3c 3f 7a 00 3d
       0.015900321 -0.044422586 0.017473137 0.031366583
0000e0 5a b8 04 bb 14 ac 0a bd 46 0b 19 3c 69 0e 10 3c
       -0.0020251484 -0.033855513 0.009341067 0.008792498
0000f0 23 93 60 bb a7 57 50 3c d8 ad 5a 3c 00 dc f2 3c
       -0.0034267388 0.01271621 0.013347112 0.02964592

model.5.weight f4 [3, 64, 3, 3]
000000 1c 86 22 3d 4c 85 1b bc 67 1f 21 3d 53 f6 15 bc
       0.039678678 -0.00949223 0.03933659 -0.009152967
000010 1b e1 6b 3c 70 38 00 3d db 1d f9 3c 5a cf e3 3c
       0.014396931 0.031303823 0.030409744 0.027808834
000020 2c c7 03 3c 75 84 0d bd 52 58 e0 3c a8 cf 28 3b
       0.008043092 -0.03455015 0.027385864 0.0025758538
000030 59 33 9d ba c5 32 d4 bc ab 69 42 bc 81 b2 2e 3b
       -0.0011993452 -0.025903115 -0.0118660135 0.002665669
000040 bc 72 8f 3b ff f2 93 3c bd 9b 49 bb 9c ed 1d 3d
       0.004377691 0.018060206 -0.0030762993 0.03855668
000050 79 af de ba f5 b4 11 bc fa 6a 63 3c 20 5d 1f 3d
       -0.0016989551 -0.008893241 0.013880486 0.03890717
000060 b8 c3 cc 39 92 54 03 bd 91 0b d7 bc 71 4d 91 bc
       0.00039055734 -0.032063074 -0.026250632 -0.017737122
000070 c1 77 f4 3c 6f 57 03 bd c7 be 90 3c b2 4e ae 3c
       0.02984226 -0.032065805 0.017669095 0.02127776
000080 7a 58 1e b9 0a 2c 2e 3b 15 70 15 bc 64 92 08 bc
       -0.00015101014 0.0026576542 -0.009120961 -0.0083356835
000090 bc d3 b1 3c f5 3d 19 bc 0a 8b 8f 3c 3c 3e 38 3c
       0.021707408 -0.009353151 0.017522354 0.011245307
0000a0 e3 e6 36 3d 27 e0 65 bc 66 e0 e1 bb f2 f5 03 bd
       0.044653784 -0.014030493 -0.0068932055 -0.032216974
0000b0 22 03 d7 bc 69 3a fa bc d6 4f 39 3c 78 c2 d7 bc
       -0.026246611 -0.03054543 0.011310538 -0.026337847
0000c0 eb fa d8 3b a4 8f a3 3c 1f 74 36 3c 67 41 46 3b
       0.0066217086 0.019965954 0.011136084 0.0030251385
0000d0 89 00 84 3c b6 02 3f 3d 00 9e 1f 3c 3d 6d 18 bd
       0.016113536 0.046633445 0.00974226 -0.037213553
0000e0 77 54 b5 3c 77 18 82 bc 4e 50 49 bb ef 1c ff bc
       0.022135003 -0.015880806 -0.0030718031 -0.031141726
0000f0 80 8e 1e 3d 5e e9 49 bc 5d e4 e3 3c 85 7e 8a 3c
       0.038710117 -0.0123237055 0.027818853 0.016906032
000100 09 36 9e 3c dd f4 c4 3c d0 a5 a1 bc a5 fd 89 3c
       0.019312875 0.024042541 -0.019732386 0.01684458
000110 db ea ed 3c b1 35 19 bd 82 91 98 bc b5 bc f4 bb
       0.029042652 -0.03740472 -0.018624071 -0.0074687847
000120 ec 47 19 bd e0 07 9e 3b 46 dd f5 bc 94 f5 dc bc
       -0.037422106 0.004822716 -0.030012738 -0.02697257
000130 6e 15 c8 bc 21 48 0e 3c fd a1 7b ba 5b df eb 3c
       -0.024424281 0.008684189 -0.0009599028 0.028793028
000140 7e c7 bf 3c 5d 4c f9 bc 95 6f 09 3d 10 6f 14 3b
       0.023410555 -0.03043192 0.03355368 0.0022649206
000150 e7 72 81 3c 8c 44 1d bc 54 17 c4 3c ad 7b 0b 3c
       0.01580186 -0.009598862 0.023936905 0.008513373
000160 a8 5e 59 bc 70 29 0a bd ff 61 1f 3d 1e a4 24 bd
       -0.013267197 -0.033730924 0.038911816 -0.040195577
000170 0d 4f 5e ba 62 4b 9c 3c aa 70 1a 3d 2a df 1e 3c
       -0.00084804074 0.019078914 0.0377051 0.009696761
000180 be d2 64 ba a1 a8 c6 3c f5 ad d9 bc 21 2b ff bc
       -0.0008728913 0.02425033 -0.026572207 -0.031148495
000190 ff 06 eb 3c 63 5f eb bc 3b 33 ef 38 da 69 d7 bb
       0.02868986 -0.028732007 0.000114059505 -0.006573898
0001a0 06 29 9b bc ef d2 08 3d a7 c6 e5 3c ed ad f1 bc
       -0.01894046 0.033404287 0.028048826 -0.02950188
0001b0 90 1a ac 3c b7 e5 88 3d 91 b6 3e 3d 6b 51 70 bc
       0.02100876 0.0668444 0.046560828 -0.014667849
0001c0 21 03 88 3a cc ef ee 3c ac 70 3b 3d 8c 43 66 3c
       0.0010376909 0.029167078 0.04576175 0.01405419
0001d0 6f 4d 52 3d 13 e9 91 3c 76 95 e7 bb 39 e0 49 bc
       0.051343378 0.017811334 -0.0070673777 -0.012321525
0001e0 61 2e dd 3c 39 92 be bc e2 22 7b bc 95 fe 5b 3c
       0.026999654 -0.023263084 -0.015328141 0.013427396
0001f0 42 f0 41 3d c8 24 a8 bb 6c 83 c6 3c 74 b3 de 3c
       0.04734827 -0.005131338 0.024232589 0.02718518
000200 ae 44 f7 bc a6 59 f8 3c 26 57 5a bc 44 c2 29 bc
       -0.030184116 0.030316185 -0.013326442 -0.010361258
000210 a8 f4 19 bc d7 5f 52 3c 2b 56 87 3c 2a 73 22 3d
       -0.0093967095 0.012840233 0.01652058 0.03966061
000220 9b 95 e8 bc 71 28 b4 3c cd 4b 03 3c 52 55 ab bc
       -0.02839165 0.02199194 0.008013678 -0.020914707
000230 09 c5 ba bc d8 a1 f3 3c 2f 80 45 3c ad 8d d2 bc
       -0.022799032 0.029740259 0.012054487 -0.025702322
000240 76 78 83 3b 50 32 06 3d d3 1d ef 3c eb 7f af 3c
       0.004012163 0.032762825 0.029189026 0.0214233
000250 39 3e db bc 58 d5 f4 bc ef 37 91 bc 69 29 1d bd
       -0.026763069 -0.029886886 -0.017726867 -0.03836957
000260 fa a0 1e bd d3 e1 c4 3c 15 8d 0e bd b9 bb f6 bc
       -0.038727738 0.024033463 -0.034802515 -0.03011881
000270 20 8b 40 3c fd dd a4 bc 1b 95 35 bc 2f 53 ac bb
       0.01175192 -0.020125384 -0.011082913 -0.0052589397
000280 72 20 2d 3d 16 48 0d 3d ab 17 ea bc f2 e2 cb bc
       0.04226727 0.034492575 -0.028575739 -0.02488849
000290 64 e7 92 bb 56 4d b2 3c 31 fa 0f bd c6 15 83 bb
       -0.0044831503 0.021765392 -0.03515071 -0.0040003983
0002a0 85 af fd bc 1b bd bc bc 36 47 47 bc b2 de ff bb
       -0.030967483 -0.023039391 -0.012162974 -0.00780853
0002b0 bb b0 99 3c d7 42 c8 bc f9 01 27 bd 8f 6e 33 3d
       0.01876103 -0.024445934 -0.040773366 0.04380661
0002c0 35 f7 15 3d d3 38 f5 bb ad 1c 1f 3d 5f 3f f2 3c
       0.036612708 -0.0074835806 0.038845707 0.029571233
0002d0 ef b7 ee 3c 95 24 3b bb 54 1a f9 b9 38 67 ff ba
       0.02914044 -0.002855574 -0.00047512597 -0.0019485718
0002e0 b7 19 f3 3c b9 e9 4e 3d bd d7 35 bd 5f 7c f2 3c
       0.029675348 0.050515864 -0.044395197 0.02960032
0002f0 97 0c 1e 3d 5f dc 8b bc 0a fa 22 3d f4 24 90 bc
       0.038586225 -0.017072855 0.039789237 -0.017595746
000300 bb db 17 3d 37 83 12 3d 1b 92 4f 3b f1 ae 3b 3d
       0.037074786 0.035769667 0.003167278 0.045821134
000310 c5 87 7a bc b9 f6 00 bd 6f a4 08 3d 76 84 a9 bc
       -0.015291159 -0.031485293 0.03335994 -0.020693045
000320 c2 7a 2a 3c 72 77 1e 3d a9 ee cb bc 54 92 90 bc
       0.010405244 0.03868813 -0.024894075 -0.0176479
000330 d1 31 bc 3b bb 54 5a 3c 0a fd f1 3a ec 3c 0c 3c
       0.0057432433 0.013325865 0.0018462252 0.008559447
000340 ce 03 1c 3b 35 ad 8b 3c c3 c5 05 3d 8f e4 37 3d
       0.0023805979 0.017050365 0.032659303 0.044895705
000350 ed 3a 1a 3d b2 a0 17 3d 82 f9 a0 3c c1 65 10 3d
       0.037653852 0.037018485 0.019650225 0.03525329
000360 0b ba 3a bd 95 86 89 bc 1f 4d aa 3c 71 26 f3 3c
       -0.04558758 -0.016787807 0.020788727 0.029681416
000370 15 2e 0d 3c 06 e6 1e bc 49 fe b9 3c 67 f9 94 3c
       0.008616944 -0.009698397 0.02270426 0.01818533
000380 8d 09 df ba 36 4b 88 bd b9 b6 89 bc 47 35 db bd
       -0.0017016396 -0.0665497 -0.016810762 -0.10703521
000390 20 e8 ad 3d 0f d1 01 3e 88 59 1a bd 12 23 0d 3d
       0.0849154 0.12677406 -0.03768304 0.034457274
0003a0 1c 18 d1 3c 81 e6 1e bd 33 7a da 3c 14 5b 2d bc
       0.025524192 -0.038794044 0.026669597 -0.010580797
0003b0 7b d7 81 3c 80 f8 82 bc 39 02 11 3d fd 90 bc bc
       0.01584982 -0.015987635 0.03540251 -0.023018355
0003c0 c8 8e 49 bc 7d d8 10 bd d4 1e 24 3d 1e 78 24 bc
       -0.012302108 -0.03536271 0.040068462 -0.010038404
0003d0 2f 95 b0 3b e7 ed 0c 3d 98 a2 6e bc 50 50 06 bc
       0.005388878 0.03440657 -0.014565133 -0.008197859
0003e0 a5 6c ae 3b 81 79 fc 3c 46 8f 33 3c 86 a1 df bb
       0.00532301 0.030819656 0.010959452 -0.006824675
0003f0 49 c2 11 bd 86 18 9c 3b be 0f c1 3b 7c 78 21 3c
       -0.035585675 0.0047636656 0.005891769 0.009855386

model.5.bias f4 [3]
000000 db c6 13 3d 59 f4 fa bc 2a f1 bb 3c
       0.036078315 -0.030634092 0.022942144
