training/models/upscaler_model_2x_w_500_h_500_epoch_0_loss_0.0091.pth (torch, 177805 bytes, 6 tensors)

model.0.weight f4 [64, 3, 5, 5]
0	0x3d49b478	0.049244374
1	0x3d2f938c	0.04286532
2	0x3d879b30	0.066213965
3	0xbd59981d	-0.053123582
4	0xbd165509	-0.03670219
5	0xbab58a08	-0.0013850341
6	0x3d9d4ed6	0.076810524
7	0x3d96b1ab	0.07358106
8	0x3b7ca2fc	0.0038549295
9	0x3ddd413c	0.10803458
10	0x3dc75d1c	0.09734556
11	0x3d872e66	0.06600647
12	0x3d5340bd	0.05157541
13	0xbddc0209	-0.10742576
14	0xbdc24d44	-0.094873935
15	0x3cbb211e	0.02284294
16	0xbdaa0ec3	-0.08303597
17	0x3dc4abd9	0.0960309
18	0x3d7f6765	0.062354464
19	0x3d04f509	0.032460246
20	0x3c833c33	0.016019916
21	0x3d997a90	0.0749408
22	0x3d891c86	0.066948935
23	0x3d14ca35	0.036325652
24	0x3d8a330a	0.06748016
25	0xbddd3455	-0.10800997
26	0xbdec12a9	-0.11526997
27	0x3d15db22	0.036585934
28	0xbdabc4f3	-0.083871745
29	0xbdb3837c	-0.08765313
30	0x3db2d013	0.08731093
31	0x3b97a44e	0.004627741
32	0xbda2ccf8	-0.07949251
33	0x3c5abe9d	0.01335111
34	0xbd701489	-0.058613334
35	0x3db47a3e	0.08812378
36	0x3b615084	0.0034380266
37	0x3ccb1b0c	0.02479317
38	0xbdf11b6e	-0.1177281
39	0x3d6a959d	0.05727159
40	0xbcf67646	-0.030085694
41	0x3d9ebaaa	0.07750447
42	0xbda7005b	-0.08154365
43	0x3d3352af	0.043780025
44	0xbc8b5489	-0.017008083
45	0x3b9f920b	0.0048697046
46	0xbd9387be	-0.07203625
47	0xbdb3639f	-0.087592356
48	0xbce0f887	-0.027462257
49	0x3cdecb41	0.027196528
50	0x3c8ff5b9	0.017573224
51	0x3daa9441	0.083290584
52	0x3b8973e1	0.004194722
53	0xbdc9d48a	-0.09854992
54	0xbd2eb153	-0.04264958
55	0xbc79a959	-0.0152381295
56	0x3d27f581	0.041005615
57	0xbd370283	-0.04468013
58	0x3de17af9	0.11009783
59	0x3d399d54	0.045316055
60	0x3db3eebe	0.08785771
61	0x3de5ffa3	0.112303995
62	0x3d9a2062	0.07525708
63	0x3d76825c	0.060182914
64	0x3dd0a582	0.10187818
65	0xbde258fd	-0.110521294
66	0x3ac36138	0.0014906293
67	0x3c6c635a	0.014427984
68	0xbdbd41bd	-0.09241054
69	0xbdd41a83	-0.10356619
70	0x3b6418c7	0.0034804808
71	0x3cabbf8c	0.02096536
72	0xbc8b6f88	-0.017020956
73	0x3d002bc8	0.031291753
74	0x3d4a2c2c	0.04935853
75	0x3d9fe70e	0.07807742
76	0xbd9e1223	-0.07718303
77	0xbd194833	-0.03742237
78	0x3d2b3b4b	0.041804593
79	0xbda6d4cc	-0.081460565
80	0x3ca4e9bd	0.020130986
81	0x3d53e4f0	0.051732004
82	0x3dae24d7	0.085031204
83	0x3d851c2c	0.06499514
84	0x3d1881d7	0.0372332
85	0x3dd58c7a	0.104271844
86	0x3db20be8	0.08693677
87	0x3df1c191	0.11804498
88	0x3cfbc559	0.030733751
89	0xbc0596e3	-0.00815365
90	0x3d6302b9	0.05542252
91	0x3de1fb69	0.11034281
92	0xbc1e292c	-0.009653371
93	0xbd98aefa	-0.07455249
94	0xbd0cc005	-0.03436281
95	0x3cb6aec5	0.022300133
96	0xbcc99843	-0.024608737
97	0xbd85ac8d	-0.06527052
98	0x3cd8d6f5	0.026469687
99	0xbca0e30d	-0.019639516
100	0xbdaa2b6c	-0.08309063
101	0xbd790f5f	-0.060805675
102	0xbdbfe8f8	-0.09370607
103	0xbc74cc74	-0.014941324
104	0xbd56b23c	-0.05241607
105	0x3d090708	0.03345397
106	0x3de15583	0.11002638
107	0x3d893687	0.066998534
108	0xbce19e99	-0.027541446
109	0xbc9cffbf	-0.019164918
110	0x3c825ea4	0.015914269
111	0xbd67b710	-0.056571066
112	0x3d9f6086	0.07782082
113	0x3d185949	0.037194524
114	0xbd62968e	-0.05531936
115	0x3db43d77	0.08800786
116	0x3df57772	0.11985673
117	0xbd0e649b	-0.034763914
118	0x3dc6b21a	0.09701939
119	0xbdc2a209	-0.09503562
120	0x3c0e8049	0.008697578
121	0x3dc9a94a	0.098467425
122	0x3d897fd9	0.06713838
123	0xbb6c236f	-0.0036031862
124	0x3d3ffe94	0.046873644
125	0x3c6ba226	0.014381921
126	0x3cbbcd03	0.022924906
127	0x3dee5d98	0.11638945
128	0x3d29f028	0.041488796
129	0x3d65d21a	0.05610857
130	0xbd246641	-0.04013658
131	0xbd837753	-0.06419244
132	0x3da80385	0.08203796
133	0x3c4ba59c	0.012429621
134	0xbd1f1bbe	-0.038844816
135	0xbd564ae4	-0.052317515
136	0x3de65120	0.11245942
137	0xbd320ac1	-0.043467287
138	0xbdc2aa67	-0.09505158
139	0xbd878a85	-0.066182174
140	0x3d701afc	0.058619484
141	0x3de3d182	0.11123945
142	0xbc6c1418	-0.014409088
143	0xbdcdb832	-0.10044898
144	0xbc0ac37b	-0.008469458
145	0xbd013ce4	-0.03155221
146	0xbcd6823c	-0.026185147
147	0x3d0d6039	0.034515593
148	0x3c17cb00	0.009264708
149	0x3da7488c	0.08168134
150	0xbd2758e9	-0.040856276
151	0x3d86fbe9	0.06591017
152	0xbda64856	-0.08119266
153	0xba8cc399	-0.0010739445
154	0xbdee315b	-0.116305076
155	0xbb46d165	-0.0030337211
156	0x3cb0c12d	0.021576488
157	0x3dc09bcf	0.09404718
158	0xbdb7541a	-0.08951588
159	0xbcb8c9c0	-0.02255714
160	0xbdbb25ba	-0.09138055
161	0xbd2ba79f	-0.041907903
162	0x3d5a4947	0.05329254
163	0x3d3c91fb	0.046037655
164	0x3d337241	0.043810133
165	0xbda283d5	-0.07935301
166	0x3db90c9b	0.090356074
167	0x3d836bc0	0.06417036
168	0xbd90aa78	-0.07063764
169	0xbdea986a	-0.11454852
170	0x3dbc14d2	0.09183659
171	0xbda30369	-0.07959635
172	0x3d86d39b	0.06583329
173	0xbd81ef79	-0.06344504
174	0x3db77383	0.08957579
175	0x3db7d90a	0.08976944
176	0x3d091d40	0.03347516
177	0x3d91e834	0.07124367
178	0x3c25b996	0.010115048
179	0x3d6205d9	0.055181358
180	0xbd0e1f8a	-0.034698047
181	0x3dbf976c	0.09355053
182	0xbbcaaa88	-0.0061848797
183	0xbd84fe59	-0.064938255
184	0xbcbacb4c	-0.022802018
185	0xbd3a7f5e	-0.045531623
186	0xbc89baba	-0.016812671
187	0xbd07fade	-0.03319823
188	0xbc82a87e	-0.015949484
189	0x3db102a4	0.08643082
190	0x3db58b17	0.0886442
191	0x3dd8992a	0.10576089
192	0x3daece3c	0.0853543
193	0xbd5cb503	-0.053883564
194	0x3dbd2131	0.092348464
195	0x3d8d72e1	0.06906677
196	0x3b55fa10	0.003265027
197	0x3da7731a	0.08176251
198	0xbde2e437	-0.11078685
199	0x3dd65539	0.10465474
200	0x3d9b721b	0.07590123
201	0x3d636664	0.05551757
202	0x3dbad495	0.09122578
203	0x3dde876d	0.10865674
204	0x3ce4c2d9	0.027924942
205	0xbd4d47be	-0.050117247
206	0x3d9ded16	0.07711236
207	0xbd705612	-0.058675833
208	0xbd5f51dd	-0.05452143
209	0x3cf151ca	0.029457945
210	0xbdd0ac84	-0.10189155
211	0xbdcf9e60	-0.101376295
212	0xbdd1e423	-0.10248592
213	0xbd8b3aaf	-0.067983024
214	0xbd3a778f	-0.045524176
215	0x3cf574f1	0.029962989
216	0xbc66f431	-0.014096306
217	0x3c232e36	0.009959748
218	0x3cfad935	0.03062115
219	0x3dd82e35	0.10555688
220	0xbbd4d33c	-0.0064949077
221	0x3db0283b	0.08601423
222	0xbb9be8f1	-0.0047579934
223	0xbda5e726	-0.08100729
224	0xbdc0a70f	-0.09406864
225	0xbd8f158b	-0.06986531
226	0xbdb10b23	-0.08644702
227	0x3b4ee8e0	0.003157191
228	0xbd2e9fae	-0.04263275
229	0x3d4ebb56	0.050471626
230	0x3d6ac8db	0.057320457
231	0x3dcfebec	0.101524204
232	0xbda6aa89	-0.08137996
233	0x3c60cc2c	0.013720553
234	0xbce9a94c	-0.02852311
235	0x3d89df58	0.067320526
236	0x3d56a4dd	0.05240332
237	0x3b9e8256	0.0048373146
238	0x3d57a14f	0.05264407
239	0x3dd80b4f	0.10549032
240	0x3caef5bc	0.02135741
241	0xbc3eb368	-0.0116394535
242	0x3c911e7d	0.017714733
243	0x3cac4e38	0.021033391
244	0x3dac80cb	0.08423003
245	0x3cb3666b	0.021899423
246	0xbd41522f	-0.047197517
247	0x3dd29987	0.10283189
248	0x3d2b6726	0.041846417
249	0xbdbbe09b	-0.091736995
250	0x3d876885	0.066117324
251	0x3cab6e4c	0.020926617
252	0xbd89b445	-0.06723837
253	0xbd142293	-0.036165785
254	0x3cb92c4b	0.022604128
255	0x3d73459f	0.059392568

model.0.bias f4 [64]
0	0x3c9cf491	0.019159587
1	0x3dd81d1a	0.10552426
2	0xbddcef9c	-0.10787889
3	0xbdb9e6e6	-0.090772435
4	0x3c428e46	0.011874741
5	0x3ce6025c	0.028077297
6	0x3dbf6f37	0.093473844
7	0x3dd9f36f	0.106421344
8	0xbd985412	-0.0743791
9	0x3d88f789	0.066878386
10	0xbd9ddaf9	-0.07707781
11	0x3b5c59e6	0.003362292
12	0x3d74e150	0.059785187
13	0x3dcae349	0.099066325
14	0x3ddd76e0	0.10813689
15	0x3dd01bb1	0.10161532
16	0xbcf76b38	-0.030202493
17	0x3dba3ff6	0.09094231
18	0x3dd14ae9	0.10219366
19	0xbb7961ee	-0.0038052755
20	0x3ddd6b0e	0.10811435
21	0xbd78666a	-0.060644545
22	0x3d88878a	0.06666477
23	0xbdcb7444	-0.09934285
24	0xbdea8c9f	-0.114526026
25	0xbc6c843e	-0.014435826
26	0x3d91eb17	0.07124918
27	0xbd10356f	-0.03520721
28	0xbcd17da2	-0.025572602
29	0x3dd25bfc	0.10271451
30	0xbd7192dc	-0.058977947
31	0xbd257adf	-0.040400382
32	0x3dd30cad	0.10305152
33	0xbc996647	-0.018725527
34	0xbd7dc46b	-0.061954897
35	0xbd48c748	-0.049018174
36	0xbd80e396	-0.062934086
37	0xbcc21ecd	-0.023696328
38	0x3d345442	0.044025667
39	0xbdb31183	-0.087435745
40	0xbdaa6d41	-0.0832162
41	0x3c8ea04c	0.01741042
42	0x3d953006	0.0728455
43	0x3cd96f9e	0.026542481
44	0xbd6d9e61	-0.05801237
45	0x3c05d43f	0.008168279
46	0x3cd7c336	0.026338201
47	0x3db700aa	0.089356735
48	0x3d772f6d	0.060347963
49	0x3d8dc277	0.06921857
50	0x3d82c38f	0.06384956
51	0x3cfb9c41	0.030714156
52	0xbd35a644	-0.044348016
53	0x3da82884	0.08210853
54	0xbd55d53e	-0.052205317
55	0x3d2adb55	0.041713078
56	0x3dc142ef	0.09436595
57	0xbdcdb022	-0.1004336
58	0x3c7af236	0.015316537
59	0xbda6231b	-0.081121646
60	0xbd556e5e	-0.052107207
61	0x3bf2b7f1	0.0074071814
62	0xbd0f25e9	-0.034948263
63	0x3daf79e1	0.085681684

model.2.weight f4 [64, 64, 3, 3]
0	0x3d10d7bc	0.03536199
1	0xbcb1ee0f	-0.02171996
2	0x3c7d42cc	0.01545782
3	0x3a0c048c	0.0005341254
4	0x3ca32025	0.019912789
5	0x3c87809a	0.016540814
6	0x3d305eb5	0.04305907
7	0x3d1f0c3c	0.038830027
8	0xbc2f67a4	-0.010705862
9	0x3d1743fc	0.03693007
10	0x3bd4903c	0.0064869206
11	0x3cc324f4	0.023821332
12	0xbc83d658	-0.016093418
13	0xbd09c2ff	-0.03363323
14	0x3c6a48e2	0.014299603
15	0x3d084f1e	0.033278577
16	0x3c4dd04a	0.012561867
17	0xbc221c0e	-0.009894384
18	0x3c588b3c	0.01321679
19	0x3d2c6560	0.042088866
20	0x3cfea8c1	0.031086328
21	0xbca83b15	-0.020535985
22	0xbcf33752	-0.029689465
23	0x3cd9a238	0.02656661
24	0xbc871106	-0.01648761
25	0xbc017630	-0.007901713
26	0xbcaa1be1	-0.020765247
27	0xbb780c64	-0.0037849182
28	0x3d2fa335	0.042880256
29	0x3c9fad7b	0.019491902
30	0x3d38e43b	0.045139533
31	0x3d08095b	0.033212047
32	0x3c7f2cbd	0.015574631
33	0xbc0afa37	-0.008482507
34	0xbc59f302	-0.0133025665
35	0xbce31c4e	-0.027723458
36	0xbc584b74	-0.013201583
37	0xbc126136	-0.00893431
38	0x3c6c99d3	0.014440971
39	0x3ce67607	0.028132452
40	0x3bd50439	0.0065007475
41	0x3d1cb85d	0.03826176
42	0x3cd96ab2	0.026540134
43	0xbd02d347	-0.03193977
44	0x3cdae6c4	0.026721366
45	0x3d12f417	0.035877313
46	0x3cc8dab4	0.024518348
47	0xbc84003f	-0.016113399
48	0x3cd31eb5	0.025771478
49	0x3d35aa3c	0.0443518
50	0x3c158f2c	0.009128373
51	0x3c190dea	0.009341696
52	0x3cda7aa0	0.0266698
53	0x3cbc2645	0.022967467
54	0xbce0401e	-0.027374323
55	0x3c84ec9e	0.01622611
56	0xbd0e6312	-0.03476245
57	0xbc83cae5	-0.016087959
58	0x3d15a430	0.036533535
59	0xbcc11269	-0.023568349
60	0x3af0aeb6	0.0018362615
61	0x3cc9102a	0.02454384
62	0x3c6f2e2f	0.014598413
63	0x3b2ccadc	0.002636603
64	0xbb4fe38f	-0.003172133
65	0x3c9b16da	0.018931795
66	0xbd08e173	-0.03341813
67	0x3c9da737	0.019244773
68	0xbcfe4d23	-0.031042641
69	0xbce923b3	-0.028459406
70	0xbbed4efd	-0.007242082
71	0x3c8e6eba	0.017386783
72	0xbd0e7b82	-0.034785755
73	0x3d87ee2d	0.06637225
74	0x3cd31fc1	0.025771977
75	0x3c9d12a0	0.01917392
76	0xbb629828	-0.0034575555
77	0x3d114f79	0.03547618
78	0xba172a59	-0.0005766503
79	0x3bf6541b	0.0075173504
80	0x3cf856b0	0.030314773
81	0x3c89249c	0.01674109
82	0xbc8c2ca2	-0.017111126
83	0x3c725cd0	0.014792636
84	0x3d30a123	0.043122422
85	0xbc74a0d7	-0.014930925
86	0x3d3da99b	0.046304327
87	0xbb5fae44	-0.003413097
88	0xbcd7a9c9	-0.026326077
89	0x3d18a179	0.037263367
90	0x3cd650bd	0.026161546
91	0xbcf4f118	-0.029900119
92	0xbcbf93fc	-0.023385994
93	0xbce20d56	-0.02759425
94	0x3c97491e	0.018467482
95	0xbb14b557	-0.0022691095
96	0x3c00ad4d	0.007853818
97	0x3cd06a24	0.025441237
98	0xbcf5b3cb	-0.029992959
99	0x3d391868	0.04518929
100	0xbca10456	-0.019655388
101	0x3cf4b3ce	0.029870894
102	0xbcff520a	-0.031167049
103	0xbcfdb6ff	-0.030971048
104	0xbbb6be65	-0.005576896
105	0x3c92e864	0.017933078
106	0x3d0791e6	0.033098124
107	0x3d3f2cec	0.0466737
108	0xbcbe384d	-0.023220206
109	0xbd586bbd	-0.052837122
110	0x3b3f2bda	0.0029170425
111	0x3c878acf	0.016545681
112	0x3d054d80	0.032544613
113	0x3cc9dba2	0.024640862
114	0xbc2e80c7	-0.01065082
115	0x3bdf235a	0.006809634
116	0xbbea0919	-0.007142198
117	0xbc5260f8	-0.012840502
118	0x3c724013	0.014785784
119	0xbc8bcbc5	-0.017064938
120	0x3cab9c70	0.020948619
121	0xbcbbb8e6	-0.022915315
122	0xbc8254d0	-0.015909582
123	0xbd2a7255	-0.04161294
124	0xbd2a585f	-0.041588183
125	0xbc10040f	-0.00879003
126	0x3cbc78ba	0.023006786
127	0xbafc0646	-0.0019227944
128	0xbcf9d173	-0.030495381
129	0x3cfe8851	0.03107086
130	0x3b236f16	0.0024938039
131	0xba66fdbf	-0.0008811615
132	0xbcc7094d	-0.024296427
133	0xbca35ec8	-0.019942656
134	0xbc8d2d0b	-0.017233392
135	0x3c878900	0.016544819
136	0x3d3383f0	0.043826997
137	0x3c40eaae	0.011774702
138	0x3d0030f8	0.0312967
139	0xbd16282f	-0.036659416
140	0x3cd7d848	0.026348248
141	0x3c7fe13c	0.015617665
142	0x3c4c9a28	0.012487926
143	0x3d2ddcb8	0.042446822
144	0x3cdbd827	0.026836468
145	0xbbc7828c	-0.0060885604
146	0x3c8af2da	0.016961504
147	0xbb3c0256	-0.0028687916
148	0xbd024d9a	-0.031812288
149	0x39ef7925	0.00045675892
150	0x3c826740	0.015918374
151	0xbcdcba78	-0.026944384
152	0xbd11a21a	-0.035554983
153	0xbd10c652	-0.035345383
154	0x3d1b0315	0.037844736
155	0xbc913d8b	-0.017729541
156	0xbca3c71f	-0.01999241
157	0x3d06fc42	0.032955416
158	0x3c92600d	0.017868066
159	0xbcb6d1ae	-0.02231678
160	0xbd0ef0ea	-0.034897722
161	0x3d03163e	0.032003634
162	0x3c187b1a	0.009306693
163	0x3c064aaf	0.008196517
164	0xbd0378e2	-0.032097705
165	0xbd065e49	-0.03280476
166	0x3d289661	0.041159038
167	0x3c39c724	0.011338983
168	0xbca5d833	-0.020244693
169	0x3c8e1ee2	0.01734871
170	0xbb9899e3	-0.0046570166
171	0x3d010ee6	0.03150835
172	0xbcc03c5f	-0.023466287
173	0xbcc9be9e	-0.024627026
174	0x3d05eeee	0.032698564
175	0xbceefd0c	-0.029173397
176	0xbca1a008	-0.01972963
177	0x3cc82ea7	0.024436308
178	0x3d0e79ed	0.034784246
179	0xbceb85c9	-0.028750317
180	0xbd24ba92	-0.04021699
181	0x3d10b818	0.035331815
182	0x3cc1672f	0.023608772
183	0x3c2746a7	0.010209716
184	0xbbfc7f7d	-0.0077056275
185	0xbc839570	-0.016062468
186	0xbc7492ae	-0.014927549
187	0xbc46f2f5	-0.012142886
188	0x3c5afe72	0.013366329
189	0x3d1c86d9	0.03821454
190	0x3c816c2b	0.015798649
191	0x3d1728e3	0.036904227
192	0xbc178b93	-0.009249586
193	0xbba9dce1	-0.0051838015
194	0xbcae2023	-0.021255558
195	0x3b71a1c3	0.00368701
196	0xbc6fbefa	-0.014632935
197	0xbbd1666e	-0.0063903844
198	0xbcc6cd39	-0.02426778
199	0xbc6ca432	-0.014443444
200	0xbb2c1145	-0.002625541
201	0xbc2a0c3c	-0.010378893
202	0xbbec2d13	-0.0072075217
203	0x3b9b4e2a	0.0047395425
204	0x3a5491d0	0.0008108886
205	0xbd28d4c2	-0.041218527
206	0x3cdf0115	0.027222196
207	0xba6adc8a	-0.00089592545
208	0x3d14f685	0.03636791
209	0xbcb4f6f2	-0.022090409
210	0xbd021f7d	-0.03176831
211	0xbc9879f5	-0.018612841
212	0xbc90afa0	-0.01766187
213	0x3cb49b0c	0.022046588
214	0x3d0d9769	0.034568224
215	0xbb7e7f7f	-0.0038833318
216	0x3d1c0c84	0.038097873
217	0x3987b093	0.00025880765
218	0x3d3eb02c	0.04655473
219	0x3d02e12d	0.031953026
220	0x3c5526ce	0.01300974
221	0xbbb7d05b	-0.0056095547
222	0x38fbde71	0.000120100456
223	0x3bf89524	0.0075861383
224	0xbc2a55ea	-0.01039646
225	0x3caaf5c3	0.020869141
226	0x3cf52a7d	0.029927487
227	0xbc8c4af2	-0.01712558
228	0xbd16ec41	-0.036846403
229	0x3c4c531c	0.012470987
230	0x3c021593	0.007939714
231	0x3aa7ace0	0.001279261
232	0xbd416fdd	-0.04722582
233	0x3cd7f30b	0.02636101
234	0xbd296513	-0.041356158
235	0x3c29b6db	0.010358538
236	0x3ca23281	0.019799473
237	0xbca11531	-0.019663425
238	0xbc8f842b	-0.017519077
239	0xbbc4a815	-0.0060014823
240	0xbc492361	-0.012276501
241	0x3b9df5ec	0.004820576
242	0xbcf0f14a	-0.02941193
243	0x3d4bdbb0	0.049770057
244	0x3cf1152e	0.029429045
245	0x3c22b64c	0.009931158
246	0x3c59536f	0.013264521
247	0x3c658497	0.014008663
248	0x3cebabac	0.028768383
249	0xbc53cba7	-0.0129269725
250	0xbc237c7e	-0.009978412
251	0x3bd19d2a	0.0063969092
252	0x3d105180	0.035233974
253	0xbc634f84	-0.0138739385
254	0x3bd54017	0.0065078842
255	0xbc8c0ba8	-0.017095402

model.2.bias f4 [64]
0	0xbd0420d5	-0.032257874
1	0xbd194b17	-0.037425127
2	0x3afceaa6	0.0019296005
3	0x3d13d61b	0.03609286
4	0xbd1345e5	-0.03595533
5	0xbcdb4b15	-0.0267692
6	0x3c4e4022	0.012588533
7	0x3d12edff	0.035871502
8	0x3c4979cc	0.012297105
9	0x3cac6cab	0.02104791
10	0xbbba84cb	-0.0056920997
11	0xbd0f84c6	-0.035038732
12	0x3c260354	0.010132629
13	0xbb916bb5	-0.0044378885
14	0x3cc85a58	0.024457142
15	0x3ceff5ce	0.029292013
16	0xbc382500	-0.01123929
17	0xbadabd80	-0.0016688555
18	0xbc7e970a	-0.01553894
19	0xbca3bbe5	-0.019987056
20	0xbbf0fde2	-0.007354484
21	0xb9f508be	-0.00046736555
22	0x3cb7c221	0.022431435
23	0x3d1eff73	0.038817834
24	0xbbe00ca7	-0.006837446
25	0xbc9684e5	-0.018373916
26	0xbc99a925	-0.018757412
27	0xbc8d9b2d	-0.017285908
28	0xbca4a242	-0.020096902
29	0x3d2e4dcc	0.04255466
30	0xbb7f1d90	-0.0038927533
31	0xba8f2fac	-0.0010924242
32	0xbd307ac5	-0.043085832
33	0xbc4a1f95	-0.012336631
34	0xbc223833	-0.009901094
35	0xbb54c300	-0.0032464862
36	0xbc85b033	-0.01631937
37	0x3d18e1be	0.03732466
38	0x3b4afac8	0.0030972231
39	0x3d05fd38	0.03271219
40	0x3c326c40	0.010890067
41	0xbb84db91	-0.0040544947
42	0x3c92c45a	0.017915893
43	0x3c746fa6	0.014919197
44	0xbb8bacb7	-0.0042625326
45	0xbcf99935	-0.030468563
46	0x3cf81da1	0.030287566
47	0x3b074c6f	0.0020644923
48	0x3c7cf707	0.015439755
49	0x3c597118	0.013271593
50	0xbd37a45b	-0.044834476
51	0xbd1384de	-0.036015384
52	0x3c824293	0.015900886
53	0xbd35f475	-0.044422586
54	0x3c9268a4	0.017872162
55	0x3d017f1d	0.031615365
56	0xbb111c13	-0.0022141978
57	0xbd09ee68	-0.033674628
58	0x3c1e6673	0.0096679805
59	0x3c100e69	0.008792498
60	0xbb609323	-0.0034267388
61	0x3c58d87f	0.01323521
62	0x3c5aadd8	0.013347112
63	0x3cf4ebd5	0.02989761

model.5.weight f4 [3, 64, 3, 3]
0	0x3d277a5a	0.040888168
1	0xbc10c07e	-0.008834956
2	0x3d22c4af	0.039738353
3	0xbc0e6ec8	-0.0086934045
4	0x3c68f25b	0.014217938
5	0x3d00da50	0.0314582
6	0x3cfda6d6	0.030963343
7	0x3ce2927d	0.027657742
8	0x3c0e93b2	0.0087022055
9	0xbd0d8475	-0.03455015
10	0x3ce05852	0.027385864
11	0x3b28cfa8	0.0025758538
12	0xba9d3359	-0.0011993452
13	0xbcd432c5	-0.025903115
14	0xbc4269ab	-0.0118660135
15	0x3b2eb281	0.002665669
16	0x3b8f72bc	0.004377691
17	0x3c93f2ff	0.018060206
18	0xbaf5aa01	-0.0018742682
19	0x3d17359e	0.036916368
20	0xbb388d5c	-0.0028160429
21	0xbc1543f8	-0.009110443
22	0x3c35e220	0.011101276
23	0x3d1958c0	0.037438154
24	0x3afcaf24	0.001927827
25	0xbd02f0c3	-0.03196789
26	0xbcc359d3	-0.023846542
27	0xbc914d71	-0.017737122
28	0x3cf477c1	0.02984226
29	0xbd03576f	-0.032065805
30	0x3c90bec7	0.017669095
31	0x3cae4eb2	0.02127776
32	0xb91e587a	-0.00015101014
33	0x3b2e2c0a	0.0026576542
34	0xbc157015	-0.009120961
35	0xbc089264	-0.0083356835
36	0x3cb1d3bc	0.021707408
37	0xbc193df5	-0.009353151
38	0x3c8f8b0a	0.017522354
39	0x3c383e3c	0.011245307
40	0x3d36e6e3	0.044653784
41	0xbc65e027	-0.014030493
42	0xbbe1e066	-0.0068932055
43	0xbd03f5f2	-0.032216974
44	0xbcd70322	-0.026246611
45	0xbcfa3a69	-0.03054543
46	0x3c394fd6	0.011310538
47	0xbcd7c278	-0.026337847
48	0x3bd8faeb	0.0066217086
49	0x3ca38fa4	0.019965954
50	0x3c36741f	0.011136084
51	0x3b464167	0.0030251385
52	0x3c840089	0.016113536
53	0x3d3f02b6	0.046633445
54	0x3c25e9a4	0.010126505
55	0xbd177907	-0.036980655
56	0x3cbb8969	0.02289267
57	0xbc80f644	-0.015742429
58	0xbb499cfe	-0.003076374
59	0xbcf90d95	-0.030401984
60	0x3d214b33	0.039378356
61	0xbc42c656	-0.011888107
62	0x3ced29ef	0.02895066
63	0x3c8e68e5	0.017384002
64	0x3c982469	0.01857205
65	0x3ccbaef6	0.024863701
66	0xbca4d7aa	-0.020122368
67	0x3c6f26bc	0.014596637
68	0x3ce96101	0.028488638
69	0xbd11fff1	-0.035644475
70	0xbc974814	-0.018466987
71	0xbbb41fe8	-0.0054969676
72	0xbd1a9e67	-0.03774872
73	0x3b9367b1	0.004498445
74	0xbcf87b21	-0.03033215
75	0xbcdfc197	-0.02731399
76	0xbccad876	-0.02476142
77	0x3c08de23	0.008353743
78	0xba47f6b2	-0.0007628008
79	0x3ced8513	0.028994119
80	0x3cc173c9	0.023614781
81	0xbcf94c5d	-0.03043192
82	0x3d096f95	0.03355368
83	0x3b146f10	0.0022649206
84	0x3c8172e7	0.01580186
85	0xbc1d448c	-0.009598862
86	0x3cc41754	0.023936905
87	0x3c0b7bad	0.008513373
88	0xbc595ea8	-0.013267197
89	0xbd0a2970	-0.033730924
90	0x3d217357	0.039416637
91	0xbd23ea1e	-0.040018193
92	0xb9834132	-0.0002503484
93	0x3c9deaa6	0.019276928
94	0x3d19884c	0.0374835
95	0x3c230627	0.009950197
96	0xb80a0a65	-3.2911445e-05
97	0x3ccb66bb	0.02482926
98	0xbcd1309c	-0.025535874
99	0xbcff2b21	-0.031148495
100	0x3ceb06ff	0.02868986
101	0xbceb5f63	-0.028732007
102	0x38ef3339	0.00011405949
103	0xbbd769da	-0.006573898
104	0xbc9b2906	-0.01894046
105	0x3d08d2ef	0.033404287
106	0x3ce5c6a7	0.028048826
107	0xbcf1aded	-0.02950188
108	0x3caa48fe	0.020786759
109	0x3d809c28	0.062797844
110	0x3d340b17	0.04395589
111	0xbc9f7802	-0.019466404
112	0xbbc43a0b	-0.0059883646
113	0x3cd290c2	0.025703792
114	0x3d2f1242	0.04274202
115	0x3c2e5a21	0.010641606
116	0x3d56ed16	0.052472197
117	0x3c91e913	0.017811334
118	0xbbe79576	-0.0070673777
119	0xbc49e039	-0.012321525
120	0x3cdd2e61	0.026999654
121	0xbcbe9239	-0.023263084
122	0xbc7b22e2	-0.015328141
123	0x3c5bfe95	0.013427396
124	0x3d41f042	0.04734827
125	0xbba824c8	-0.005131338
126	0x3c6e7216	0.014553567
127	0x3c80f764	0.015742965
128	0xbd33aa9f	-0.04386389
129	0x3d05fd38	0.03271219
130	0xbc392c6f	-0.011302098
131	0xbc200db0	-0.009768888
132	0xbae9242d	-0.001778727
133	0x3cb39476	0.021921378
134	0x3ccbdeb3	0.024886465
135	0x3d229d53	0.039700817
136	0xbceb1f19	-0.028701352
137	0x3cb5f81a	0.02221303
138	0x3bff81ec	0.0077974703
139	0xbcaf5db9	-0.021406995
140	0xbcb823c6	-0.022477996
141	0x3cf7afc7	0.030235184
142	0x3c4ba016	0.012428304
143	0xbcc77e1d	-0.024352128
144	0x3b9791d3	0.004625538
145	0x3d06d5f7	0.032918897
146	0x3cf16529	0.029467182
147	0x3cb53d97	0.022124095
148	0xbcd8203b	-0.026382556
149	0xbcef4ea0	-0.029212296
150	0xbc89968f	-0.016795425
151	0xbd19801f	-0.0374757
152	0xbd195b15	-0.03744038
153	0x3ccf9506	0.025339615
154	0xbd0cdae1	-0.034388427
155	0xbcee9199	-0.02912216
156	0x3c4d48c8	0.012529559
157	0xbca7a545	-0.020464549
158	0xbc3212eb	-0.010868768
159	0xbb91446d	-0.004433206
160	0x3d2b04eb	0.041752737
161	0x3d0d69ab	0.0345246
162	0xbcea17ab	-0.028575739
163	0xbccbe2f2	-0.02488849
164	0xbb92e764	-0.0044831503
165	0x3cb24d56	0.021765392
166	0xbd0ffa31	-0.03515071
167	0xbb8315c6	-0.0040003983
168	0xbcfdaf85	-0.030967483
169	0xbcbcbd1b	-0.023039391
170	0xbc474736	-0.012162974
171	0xbc036945	-0.008020704
172	0x3c893214	0.016747512
173	0xbcc8a901	-0.02449465
174	0xbd2987bb	-0.04138921
175	0x3d286ce0	0.041119456
176	0x3d12d21d	0.03584491
177	0xbbda3b79	-0.0066599217
178	0x3d19827b	0.03747795
179	0x3cf4927e	0.02985501
180	0x3d062cee	0.032757692
181	0xbb8ec2aa	-0.004356702
182	0x3afb8c4b	0.0019191591
183	0xbb04aa13	-0.0020242974
184	0x3cc1f5a7	0.023676706
185	0x3d47ebe9	0.048808966
186	0xbd24d5f1	-0.040243093
187	0x3ce9cf9c	0.028541379
188	0x3d2b2783	0.04178573
189	0xbc8bdc5f	-0.017072855
190	0x3d22fa0a	0.039789237
191	0xbc9024f4	-0.017595746
192	0x3d17dbbb	0.037074786
193	0x3d128337	0.035769667
194	0x3b4f9238	0.0031672847
195	0x3d3baef1	0.045821134
196	0xbc7a87b9	-0.015291148
197	0xbd00f6b9	-0.031485293
198	0x3d04cbf9	0.032421086
199	0xbcae9842	-0.021312837
200	0x3c4489c0	0.011995733
201	0x3d1e1631	0.038595382
202	0xbcc58d56	-0.024115246
203	0xbc70df13	-0.014701623
204	0x3bf3e06a	0.0074425237
205	0x3c800f05	0.015632162
206	0x3bb0f756	0.0054005785
207	0x3c0d514d	0.008625341
208	0x3b16fab5	0.0023037617
209	0x3c8d14f7	0.01722191
210	0x3d05ad8a	0.032636203
211	0x3d36fcf1	0.044674817
212	0x3d1a84ab	0.03772418
213	0x3d1a4628	0.037664562
214	0x3ca419cd	0.020031834
215	0x3d133ebd	0.035948504
216	0xbd3aba0b	-0.04558758
217	0xbc898695	-0.016787807
218	0x3caa4d1f	0.020788727
219	0x3cf32671	0.029681416
220	0x3c0d2e15	0.008616944
221	0xbc1ee606	-0.009698397
222	0x3cb9fe49	0.02270426
223	0x3c94f967	0.01818533
224	0xbadf098b	-0.0017016394
225	0xbd28c221	-0.04120076
226	0xbbf4db5a	-0.007472438
227	0xbdc6cb2d	-0.097067215
228	0x3da0fae6	0.07860355
229	0x3dd6c2ee	0.10486399
230	0xbd27e59b	-0.040990453
231	0x3d9dfa50	0.07713759
232	0x3d610c0a	0.054943122
233	0x3c86e65d	0.016467268
234	0x3cda7a33	0.026669597
235	0xbc2d5b14	-0.010580797
236	0x3c81d77b	0.01584982
237	0xbc82f880	-0.015987635
238	0x3d110239	0.03540251
239	0xbcbc90fd	-0.023018355
240	0xbc498ec8	-0.012302108
241	0xbd10d87d	-0.03536271
242	0x3d241ed4	0.040068462
243	0xbc24781e	-0.010038404
244	0x3bb0952f	0.005388878
245	0x3d0cede7	0.03440657
246	0xbc6ea298	-0.014565133
247	0xbc065050	-0.008197859
248	0x3bae6ca5	0.00532301
249	0x3cfc7981	0.030819656
250	0x3c338f46	0.010959452
251	0xbbdfa186	-0.006824675
252	0xbd11c249	-0.035585675
253	0x3b9c1886	0.0047636656
254	0x3bc10fbe	0.005891769
255	0x3c21787c	0.009855386

model.5.bias f4 [3]
0	0x3d14fe9e	0.036375634
1	0xbcf8c30b	-0.030366441
2	0x3cc1b6b1	0.023646684
